evaluation/ant_ppo/ant_ppo_s0/pyt_save/model.pt (torch_old, 97565 bytes, 12 tensors)

log_std f4 [8]
-0.5991351 -0.61856645 -0.62655026 -0.58320975 -0.6396342 -0.642809 -0.6176552 -0.6017884
00000000: eb60 19bf 5f5a 1ebf 9965 20bf 3c4d 15bf
00000010: 11bf 23bf 218f 24bf a71e 1ebf ce0e 1abf

weight f4 [64, 111]
0.04768347 0.068947695 -0.056513954 -0.107845105 -0.01679307 0.07906123 0.048372407 0.13712786
-0.055642683 0.013516298 -0.07709859 -0.015870305 -0.11488874 -0.09415608 -0.028355053 0.06969832
0.06258212 0.05300209 -0.06125883 -0.06387731 0.008015406 0.039837543 -0.053888053 0.05527903
-0.0051726988 0.04122147 0.0865979 -0.088050574 -0.059753098 -0.024029382 -0.036998175 0.082007326
-0.06152249 -0.04369286 -0.066312015 -0.088894434 -0.055406194 0.08158944 0.042353176 0.04600308
0.00499177 -0.048661765 0.016058296 -0.088622384 -0.06858295 -0.04893194 0.05988597 0.05565115
-0.042094685 -0.003424786 0.060704418 0.09435894 0.037670396 0.012822449 0.06363975 -0.055886645
0.017686993 -0.073588744 -0.06578483 -0.049031943 0.042946838 0.038171373 -0.056223612 0.028674737
0.05210612 -0.0119800195 0.0036240295 0.021992438 0.05888354 0.091137595 -0.073144354 -0.03478377
0.037302844 0.07864242 0.08259643 0.0837496 0.018889628 -0.08253713 0.008731544 -0.05937983
-0.088457175 0.08433197 0.07217016 -0.094681166 0.017765582 -0.01598952 -0.015619457 -0.04344836
0.03650046 -0.056218963 0.034795307 0.047999687 0.06794753 0.035490073 -0.09394151 -0.061571587
0.047392882 0.019866005 -0.0740423 -0.054654367 0.08929197 0.063955955 -0.041385677 -0.023888864
-0.09041661 -0.0017060265 -0.07147719 -0.073213935 -0.0052298233 0.014251135 -0.038870893 0.09691841
-0.101619296 0.07718209 0.09515761 -0.07080037 -0.09109318 -0.00085350545 0.044410955 0.03170353
0.057763517 0.0057974756 -0.051639803 0.036051217 -0.12933528 -0.04215764 -0.004731408 -0.024399754
-0.014922678 -0.07487385 0.002296828 0.020099513 -0.068191595 -0.017454477 0.03834368 -0.0041159657
-0.00018929972 0.019803245 0.019209191 0.060351215 0.08990864 0.060276844 0.09011435 -0.006864466
-0.08526491 -0.04499742 0.06462867 -0.0006152913 -0.047177553 -0.07273509 -0.08882715 -0.080109715
-0.019252412 0.0520524 0.051315375 -0.09153982 0.059206776 -0.07427251 -0.02006618 -0.038485758
-0.018282235 -0.018636025 -0.08517269 -0.0819539 -0.014852375 0.0012274683 -0.043117866 0.035754703
-0.08542976 -0.006405607 0.0834708 -0.038715396 0.08570927 0.03437411 -0.085657805 0.06005297
-0.010952756 -0.04237106 0.07589973 -0.076701 0.010184936 -0.019872397 0.06778058 0.026495226
0.045607544 0.033520363 -0.022824846 -0.019961312 -0.07821835 0.051429562 0.075361066 0.06494375
-0.06695154 0.0042332336 -0.06690939 -0.052249648 -0.05530796 0.032437004 -0.056561574 -0.0020707995
0.00399293 0.061184905 -0.071748756 -0.065160856 -0.055113953 0.06643473 -0.03411891 0.0800604
0.03432227 0.012018807 -0.00070655346 -0.018763103 0.01190874 -0.021673515 -0.00066691637 0.012110598
-0.07424362 -0.049748354 0.07664382 -0.0770286 -0.0068155453 0.093894385 0.032362934 -0.016631491
-0.07725608 0.11690135 -0.05588848 0.023639135 -9.249726e-05 -0.03846958 0.005115634 0.06744859
-0.036269877 0.08495193 0.049875587 -0.078684665 0.040230457 -0.06570131 -0.05716054 0.03682653
0.009051721 0.060735777 -0.047852416 0.029713938 0.08021835 -0.07803793 0.0846158 -0.07485087
-0.0003575193 -0.01613728 -0.049989585 0.012545116 0.07848766 -0.027745746 -0.05635095 -0.03510355
00000000: be4f 433d 7334 8d3d 2d7b 67bd e5dd dcbd
00000010: 9f91 89bc dbea a13d 2522 463d 3f6b 0c3e
00000020: 95e9 63bd 7673 5d3c dee5 9dbd 7102 82bc
00000030: ca4a ebbd e7d4 c0bd db48 e8bc febd 8e3d
00000040: 0e2b 803d b818 593d 8aea 7abd 1bd2 82bd
00000050: 0d53 033c b12c 233d b8b9 5cbd 446c 623d
00000060: be7f a9bb d8d7 283d 3d5a b13d dc53 b4bd
00000070: aabf 74bd 44d9 c4bc 668b 17bd 75f3 a73d
00000080: 02ff 7bbd 49f7 32bd 98ce 87bd 490e b6bd
00000090: 9bf1 62bd 5d18 a73d 867a 2d3d ba6d 3c3d
000000a0: 0092 a33b 8f51 47bd b08c 833c a77f b5bd
000000b0: 3875 8cbd dc6c 48bd fe4a 753d 76f2 633d
000000c0: 7a6b 2cbd 6072 60bb 32a5 783d 433f c13d
000000d0: 464c 1a3d 4015 523c 8f55 823d 65e9 64bd
000000e0: 50e4 903c b2b5 96bd 32ba 86bd b8d5 48bd
000000f0: 06e9 2f3d 9659 1c3d bb4a 66bd 48e7 ea3c
00000100: 3a6d 553d d847 44bc 2081 6d3b 7c29 b43c
00000110: de2f 713d 59a6 ba3d b5cc 95bd 6d79 0ebd
00000120: deca 183d 470f a13d 5128 a93d e984 ab3d
00000130: 6cbe 9a3c 3a09 a9bd c00e 0f3c 4438 73bd
00000140: 0929 b5bd 3db6 ac3d f3cd 933d 33e8 c1bd
00000150: 2089 913c 74fc 82bc c0e8 7fbc e8f6 31bd
00000160: 8281 153d db45 66bd 8685 0e3d 529b 443d
00000170: 1328 8b3d 0a5e 113d 6864 c0bd 7d32 7cbd
00000180: 0a1f 423d 08be a23c 7da3 97bd 42dd 5fbd
00000190: b5de b63d 57fb 823d 0784 29bd 94b2 c3bc
000001a0: 582c b9bd c09c dfba a262 92bd 30f1 95bd
000001b0: f05e abbb 987d 693c 1637 1fbd 297d c63d
000001c0: c71d d0bd a511 9e3d fee1 c23d c9ff 90bd
000001d0: 108f babd c8bd 5fba 43e8 353d 90db 013d
000001e0: 7099 6c3d c0f8 bd3b 4284 53bd 71aa 133d
000001f0: 7870 04be 7dad 2cbd ed09 9bbb fee1 c7bc
00000200: 3f7e 74bc 7657 99bd 6186 163b bca7 a43c
00000210: 09a8 8bbd b1fc 8ebc 430e 1d3d 39df 86bb
00000220: c27e 46b9 6a3a a23c 985c 9d3c d632 773d
00000230: 0522 b83d dae4 763d df8d b83d 50ef e0bb
00000240: 5e9f aebd 374f 38bd 095c 843d 804b 21ba
00000250: 403d 41bd 23f6 94bd 02eb b5bd 9010 a4bd
00000260: 3cb7 9dbc e634 553d 1230 523d 3b79 bbbd
00000270: ce82 723d 301c 98bd d461 a4bc 3ea3 1dbd
00000280: a0c4 95bc 94aa 98bc 056f aebd 72d7 a7bd
00000290: 6057 73bc 00e3 a03a 5c9c 30bd 8673 123d
000002a0: ccf5 aebd 20e6 d1bb bdf2 aa3d 0994 1ebd
000002b0: 5788 af3d decb 0c3d 5c6d afbd 1afa 753d
000002c0: 3073 33bc 478d 2dbd 5171 9b3d 6a15 9dbd
000002d0: b8de 263c 70cb a2bc 8bd0 8a3d 840c d93c
000002e0: face 3a3d a64c 093d 2cfb babc e885 a3bc
000002f0: f130 a0bd cea7 523d e756 9a3d 3b01 853d
00000300: e41d 89bd f0b6 8a3b ca07 89bd ba03 56bd
00000310: 998a 62bd aadc 043d 1cad 67bd 40b6 07bb
00000320: 20d7 823b 069d 7a3d 03f1 92bd 0e73 85bd
00000330: 2bbf 61bd ef0e 883d 45c0 0bbd b5f6 a33d
00000340: 8295 0c3d 88ea 443c 0038 39ba 14b5 99bc
00000350: e01c 433c a88c b1bc 00d4 2eba 886b 463c
00000360: 0a0d 98bd eec4 4bbd 6ff7 9c3d 2cc1 9dbd
00000370: f054 dfbb b34b c03d ff8e 043d c43e 88bc
00000380: 7038 9ebd fa69 ef3d 52eb 64bd dca6 c13c
00000390: 17fb c1b8 4792 1dbd 0ca1 a73b 7d22 8a3d
000003a0: b98f 14bd 47fb ad3d 584a 4c3d 6d25 a1bd
000003b0: b1c8 243d 698e 86bd 2c21 6abd 6ad7 163d
000003c0: ab4d 143c 14c6 783d e500 44bd a56a f33c
000003d0: 8549 a43d 5ad2 9fbd 0c4b ad3d 6a4b 99bd
000003e0: 6e71 bbb9 5432 84bc e1c1 4cbd 088a 4d3c
000003f0: 23be a03d 0c4b e3bc 41d0 66bd bdc8 0fbd

bias f4 [64]
-0.017165186 -0.062148362 0.006185439 -0.031937405 -0.059500214 0.06492629 0.014779029 -0.062226363
0.012610809 0.034190584 0.0427894 0.029136201 0.105323456 -0.12237324 0.05248071 -0.08311903
0.06971097 -0.012483765 -0.047888733 0.09166664 0.100256495 -0.02853864 -0.024566848 0.052809764
-0.052211795 -0.03835466 -0.09035755 0.07829784 0.016067011 0.025968853 -0.03444704 0.05101397
-0.090489596 -0.023781829 0.011990147 0.027005311 0.016602116 0.006365392 0.09763756 0.02378724
0.098193444 -0.0066433605 0.0953997 -0.047627386 -0.010915402 0.023661641 0.076228306 -0.0034380418
-0.00064245646 0.0016786323 -0.05414323 0.08096933 -0.071299784 -0.011767885 0.020455785 0.039333142
0.031999115 0.11632246 0.06153492 0.045786686 -0.035459783 -0.04011644 0.12880921 0.009074355
00000000: 019e 8cbc 488f 7ebd 39af ca3b ccd0 02bd
00000010: 7fb6 73bd 13f8 843d be23 723c 12e1 7ebd
00000020: 919d 4e3c 6d0b 0c3d f043 2f3d 0baf ee3c
00000030: d3b3 d73d d29e fabd 03f6 563d 4f3a aabd
00000040: a0c4 8e3d b588 4cbc fa26 44bd b8bb bb3d
00000050: 4753 cd3d dec9 e9bc 6a40 c9bc 0d4f 583d
00000060: 09dc 55bd c719 1dbd 610d b9bd 9e5a a03d
00000070: f79e 833c a2bc d43c 5718 0dbd 06f4 503d
00000080: 9c52 b9bd 1cd2 c2bc 5272 443c 3e3a dd3c
00000090: 2901 883c c794 d03b 33f6 c73d 75dd c23c
000000a0: a519 c93d 8cb0 d9bb eb60 c33d ef14 43bd
000000b0: 84d6 32bc 0fd6 c13c 961d 9c3d c550 61bb
000000c0: 866a 28ba 8e05 dc3a 4bc5 5dbd 40d3 a53d
000000d0: 9f05 92bd 16ce 40bc e492 a73c ca1b 213d
000000e0: 8111 033d 783a ee3d 0a0c 7c3d d28a 3b3d
000000f0: 473e 11bd 2351 24bd 90e6 033e 9aac 143c

weight f4 [64, 64]
-0.09581993 -0.042997565 0.013572885 0.016950203 0.10185564 0.0067688893 -0.018654365 0.113538966
-0.017800251 0.008004269 -0.08490973 -0.036983486 -0.09263118 0.010438728 -0.09348879 0.07154095
-0.024596574 -0.0724723 0.014987927 -0.047971956 -0.11021292 0.117892504 0.02167853 0.021221973
0.026589803 -0.077874124 0.020640567 0.09173155 -0.064631805 0.022868203 0.10034081 -0.020934135
0.09799838 -0.045084927 -0.0022881946 0.04264459 -0.048321154 -0.06018132 -0.03586616 0.027058735
-0.07343773 -0.114243425 -0.09336156 0.14825962 -0.003633516 0.057816926 -0.13889265 -0.0008838943
-0.09282142 0.008805668 0.08311714 0.084080026 -0.015860489 -0.09432428 -0.12889221 -0.08042158
0.047952954 -0.07051372 0.05916714 -0.03261356 0.13751304 -0.033809472 -0.02220931 0.096275106
0.091164075 0.08409906 0.06283663 -0.106676325 0.073323615 -0.06223835 0.10013428 0.09224141
-0.037518155 0.050028704 0.015689112 0.040474083 0.09165236 0.06290605 -0.042373475 0.006011426
0.03535354 -0.075350836 0.014890086 -0.07237907 0.08435836 0.12102271 0.019378861 0.12630434
-0.0326456 0.080776945 0.06282984 -0.095476426 -0.10303544 -0.029753432 0.03094474 -0.03896908
0.00062502467 0.07805659 0.15727009 0.044360183 0.025654538 0.06061024 0.028817885 -0.09523399
-0.121651255 -0.1419162 -0.097082786 0.080856025 -0.020624094 -0.112778865 0.007319987 0.018284526
-0.07160512 -0.12511617 0.038323842 0.00033487685 -0.038855106 -0.066573665 -0.021712635 0.11002467
-0.11194833 -0.024453668 -0.028799891 0.10265198 0.003092534 0.09742119 0.0059573282 -0.022920815
0.07182464 -0.03758732 0.059332293 0.10471095 0.06724291 0.08873074 -0.10806914 0.10902525
-0.10126216 0.08560344 0.030871846 0.03261842 -0.007415613 -0.10766116 0.12921132 0.0012129366
0.12634856 0.024308283 -0.042084154 0.08727356 -0.00209335 -0.06609172 0.01244886 -0.13863051
-0.097733304 -0.108372755 0.017156845 -0.10370492 -0.023348011 -0.10485369 -0.14411093 0.006149551
0.0028649408 0.06243654 -0.05181743 0.11695904 -0.10786603 0.047408514 -0.075336866 0.10240558
-0.070811085 0.030018492 0.019626783 -0.018631082 -0.039451305 -0.07010093 0.077939846 0.09915663
0.102271825 -0.009531679 -0.042800125 -0.06150426 -0.04009468 0.025042553 -0.03296983 -0.07526012
0.0041681477 -0.011949849 -0.114477135 -0.031923894 -0.017478975 -0.11309923 0.009314464 0.03209445
0.0021121434 -0.038730655 0.020230107 0.051593304 -0.027701458 -0.022033498 0.07563794 -0.042905424
-0.010767975 -0.12768006 -0.07675976 -0.02095394 -0.040396947 0.10712507 -0.014042643 -0.13816951
0.13161482 -0.07313605 0.065810174 0.0020915796 -0.0018304657 -0.119321905 0.10437684 0.032521565
-0.07673833 -0.10573753 0.0373671 -0.14391348 0.11133546 0.010570586 0.10973377 0.12515205
-0.052937474 -0.036896266 0.08840092 0.10673134 0.12740763 -0.08533791 0.0035283961 0.023095753
0.08917634 -0.06263609 0.096040696 -0.0052819285 0.052971397 0.057820596 -0.12928645 0.07923708
-0.10938925 0.052282996 0.10172905 -0.04157812 -0.08248284 -0.11591883 0.11635922 -0.040220562
-0.09004492 0.10887465 0.05086298 0.009311936 0.014618264 0.03228853 0.112613045 0.10928029
00000000: 3d3d c4bd 371e 30bd ce60 5e3c 27db 8a3c
00000010: b199 d03d 8fcd dd3b 0ad1 98bc 1e87 e83d
00000020: d5d1 91bc 5624 033c 27e5 adbd ff7b 17bd
00000030: 6bb5 bdbd 3307 2b3c 0d77 bfbd 1084 923d
00000040: c17e c9bc 5b6c 94bd ec8f 753c 3e7e 44bd
00000050: 50b7 e1bd a071 f13d 2c97 b13c b4d9 ad3c
00000060: dcd2 d93c 787c 9fbd 6816 a93c c0dd bb3d
00000070: ae5d 84bd 1956 bb3c 7c7f cd3d 107e abbc
00000080: 60b3 c83d f9aa 38bd 89f5 15bb 18ac 2e3d
00000090: 67ec 45bd b080 76bd 65e8 12bd 48aa dd3c
000000a0: 8566 96bd 75f8 e9bd 5834 bfbd 5fd1 173e
000000b0: 4820 6ebb 71d1 6c3d e039 0ebe 24b5 67ba
000000c0: 2819 bebd a645 103c 5239 aa3d 2632 ac3d
000000d0: dbed 81bc 172d c1bd 52fc 03be 12b4 a4bd
000000e0: 516a 443d 7f69 90bd 3e59 723d cc95 05bd
000000f0: 38d0 0c3e cd7b 0abd 4df0 b5bc e22b c53d
00000100: 3bb4 ba3d 213c ac3d 7eb0 803d 1e79 dabd
00000110: b12a 963d a4ed 7ebd 3413 cd3d 10e9 bc3d
00000120: a3ac 19bd e6ea 4c3d 7486 803c 27c8 253d
00000130: 3cb4 bb3d e3d4 803d cf8f 2dbd 7ffb c43b
00000140: e0ce 103d 8a51 9abd 8cf5 733c 7a3b 94bd
00000150: 13c4 ac3d c1da f73d 6bc0 9e3c ed55 013e
00000160: 65b7 05bd 626e a53d eeac 803d 2589 c3bd
00000170: 3f04 d3bd 78bd f3bc d37f fd3c 0b9e 1fbd
00000180: b2d8 233a 22dc 9f3d 690b 213e 06b3 353d
00000190: 7729 d23c 7142 783d 7c13 ec3c 0a0a c3bd
000001a0: 4b24 f9bd 7b52 11be 57d3 c6bd d897 a53d
000001b0: dcf3 a8bc 9bf8 e6bd 80dc ef3b 6ec9 953c
000001c0: b5a5 92bd 741e 00be 76f9 1c3d 6992 af39
000001d0: 8826 1fbd c657 88bd b2de b1bc 9d54 e13d
000001e0: 2b45 e5bd 0f53 c8bc c0ed ebbc 343b d23d
000001f0: 1cac 4a3b c384 c73d b135 c33b 6fc4 bbbc
00000200: cc18 933d 29f5 19bd 6b06 733d b272 d63d
00000210: a7b6 893d 76b8 b53d 5a53 ddbd a148 df3d
00000220: 8962 cfbd db50 af3d f4e6 fc3c e49a 053d
00000230: acfe f2bb 747d dcbd f94f 043e 66fb 9e3a
00000240: 8461 013e 2a22 c73c 6f60 2cbd 7bbc b23d
00000250: 9630 09bb 185b 87bd 4ef6 4b3c 28f5 0dbe
00000260: 6628 c8bd 89f2 ddbd 838c 8c3c 3f63 d4bd
00000270: 5444 bfbc 88bd d6bd d191 13be 2c82 c93b
00000280: bbc1 3b3b 75bd 7f3d 833e 54bd 3988 ef3d
00000290: dde8 dcbd 6e2f 423d 374a 9abd 04ba d13d
000002a0: 6705 91bd 57e9 f53c 59c8 a03c 36a0 98bc
000002b0: b197 21bd 1491 8fbd ed9e 9f3d a212 cb3d
000002c0: e473 d13d c22a 1cbc 2f4f 2fbd e4eb 7bbd
000002d0: 523a 24bd 0a26 cd3c 5f0b 07bd fa21 9abd
000002e0: f594 883b 4dc9 43bc fd72 eabd a1c2 02bd
000002f0: 1130 8fbc 92a0 e7bd b29b 183c 7875 033d
00000300: e36b 0a3b 09a4 1ebd 9cb9 a53c 8053 533d
00000310: 2bee e2bc 987f b4bc 10e8 9a3d 99bd 2fbd
00000320: 296c 30bc 90be 02be 3934 9dbd 99a7 abbc
00000330: 4577 25bd 6464 db3d 1d13 66bc 4f7c 0dbe
00000340: 09c6 063e 5ac8 95bd 7cc7 863d e212 093b
00000350: 3dec efba 0b5f f4bd 86c3 d53d 5535 053d
00000360: fc28 9dbd eb8c d8bd 3f0e 193d 0e5e 13be
00000370: d803 e43d 4030 2d3c 19bc e03d dc27 003e
00000380: f7d4 58bd 8a20 17bd 8b0b b53d f695 da3d
00000390: 2577 023e a4c5 aebd aa3c 673b 4e33 bd3c
000003a0: 16a2 b63d 5a47 80bd fcb0 c43d 0714 adbb
000003b0: 89f8 583d 4ad5 6c3d ab63 04be 0d47 a23d
000003c0: 7907 e0bd b226 563d 5257 d03d d24d 2abd
000003d0: c3ec a8bd da66 edbd be4d ee3d 51be 24bd
000003e0: 7969 b8bd acf9 de3d b355 503d 1791 183c
000003f0: 7181 6f3c fa40 043d aba1 e63d 58ce df3d

bias f4 [64]
-0.0067651207 0.029798148 -0.11687034 0.0137769515 0.0052276165 -0.10118352 0.023686277 0.03298155
0.011477859 -0.10886183 0.10342778 -0.09622291 0.049065817 0.0001235088 -0.046448197 -0.06633095
0.1265152 0.11566024 -0.08897711 0.006802642 -0.070036516 -0.073962785 -0.009557714 0.097334564
-0.009217749 0.09818614 -0.122106835 -0.030640205 0.022163162 -0.08691307 0.0072405757 0.004217655
0.07246363 -0.037946712 -0.019521408 0.07064714 -0.04924559 0.07518777 0.12713027 -0.07726719
-0.0008434105 -0.05475095 0.09558707 -0.037427373 -0.019389298 0.0856086 0.01897423 0.07391241
-0.05557497 -0.09061731 0.035570025 0.09978209 0.10659778 -0.025625726 0.111686505 -0.07115414
0.11454982 -0.029974006 -0.05312744 0.035602033 0.11292453 0.08336812 -0.08303592 0.025479848
00000000: f2ad ddbb 3f1b f43c b859 efbd b9b8 613c
00000010: 6d4c ab3b 4e39 cfbd b909 c23c a917 073d
00000020: a10d 3c3c f3f2 debd f2d1 d33d 8410 c5bd
00000030: 3df9 483d 2482 0139 7740 3ebd 85d8 87bd
00000040: 338d 013e 47df ec3d a239 b6bd b2e8 de3b
00000050: 4e6f 8fbd cd79 97bd f597 1cbc 5857 c73d
00000060: 0b06 17bc d115 c93d 2613 fabd 2b01 fbbc
00000070: 858f b53c 7bff b1bd 5a42 ed3b 4134 8a3b
00000080: d067 943d 036e 1bbd 5ceb 9fbc 73af 903d
00000090: beb5 49bd 0cfc 993d 702e 023e 433e 9ebd
000000a0: 5218 5dba 8842 60bd 27c3 c33d 724d 19bd
000000b0: 4ed6 9ebc 9053 af3d d86f 9b3c 645f 973d
000000c0: 94a2 63bd 9195 b9bd e0b1 113d 8d5a cc3d
000000d0: f04f da3d 0bed d1bc e5bb e43d 43b9 91bd
000000e0: 1999 ea3d 0c8c f5bc 299c 59bd 70d3 113d
000000f0: fa44 e73d e8bc aa3d bd0e aabd 1dbb d03c

weight f4 [8, 64]
0.06341396 -0.017819626 0.03244294 0.12401733 0.0038354013 0.11161693 -0.11245366 -0.05665498
0.035425376 -0.03272898 -0.103562355 -0.037679695 -0.065212324 0.08095303 0.0719377 -0.065853685
0.064533636 0.07498662 0.08770541 -0.09961871 -0.1027336 0.010773964 0.05208665 0.03694806
-0.073131375 0.07831588 0.121422604 -0.03306147 -0.004653668 -0.010657403 -0.06889323 -0.11272521
0.094834246 0.1025136 -0.01156476 -0.08142096 0.017989725 -0.09107461 0.05580604 0.13613467
0.13235104 0.09496817 0.048142206 0.12017746 -0.0076829977 0.006028632 -0.100474395 0.07567375
0.06282035 0.060139626 0.08995762 0.0921088 -0.122341484 -0.040914156 -0.101749845 0.07253796
-0.017600467 -0.13668622 0.04264754 -0.095693216 -0.009142249 0.06142253 0.06471388 0.08381911
-0.001552323 -0.02899371 -0.026909906 -0.14121754 -0.015727192 0.08729797 0.058828995 -0.103419036
0.038363133 0.09961798 -0.082148686 0.005709518 -0.04040551 0.043394737 -0.07523341 0.10000328
0.084002614 -0.039949305 -0.13057947 -0.07033315 -0.03039653 0.008862837 -0.042560052 -0.049327433
0.0066822064 -0.105454 0.04622602 -0.1019278 -0.02468415 -0.1144919 -0.0649563 0.007808515
-0.031000298 -0.104012154 0.029266065 -0.03828876 0.014316476 0.03890504 -0.012731183 -0.13505073
-0.03073193 -0.02941408 0.0703229 -0.09244507 0.08996761 0.028660096 0.0045423205 0.020873226
-0.012996228 0.0018130909 0.09325963 0.0055126958 0.0689717 0.08096878 0.095531985 -0.008548725
0.06336895 -0.0020080558 0.09922511 -0.015950853 0.034117337 -0.0015844405 -0.15648155 0.039713327
-0.09582734 0.05886955 -0.04102869 0.04305882 -0.1261392 0.051868435 0.09192034 0.06914675
0.03549438 -0.06690167 0.11629954 0.048275605 -0.12041469 -0.004333949 -0.020284496 0.059400544
-0.008437526 0.11907565 -0.017316477 -0.024248047 -0.008370579 0.076624185 -0.09165031 0.109373376
-0.045896612 0.046808884 -0.08405871 -0.04418655 0.013796763 0.008370085 -0.07678211 -0.10160917
-0.121852785 0.1145513 0.05144058 -0.030276466 0.075193085 0.007171575 0.00083397835 -0.082854785
-0.0863648 0.06472705 0.09112195 -0.11719465 -0.0059391037 0.034992337 -0.063376255 -0.07102058
-0.1294259 0.041478597 0.093714334 0.054690022 -0.045606274 0.0625422 -0.10357877 -0.064006366
0.049174797 0.09629625 0.008290692 -0.034971926 0.009561734 -0.13316081 0.06660215 -0.08342859
-0.037421625 -0.09118238 0.018392272 -0.07352178 0.006593781 -0.08217478 0.065168366 -0.100405216
-0.0920017 -0.13050635 0.115703635 0.07247858 -0.062135886 -0.0217173 0.1489745 0.053389844
0.11534878 0.00216345 0.011190612 0.092681386 -0.0005189075 -0.104552746 -0.0077890637 0.07430768
0.04414862 -0.013542855 -0.10945096 0.10145456 -0.042474564 -0.017044613 0.13245377 0.096507326
0.0036002113 0.057229124 0.018389704 0.014643583 -0.054051794 0.029569387 0.04721636 0.06286579
-0.051984772 -0.006737144 -0.008336097 -0.03787599 0.02436993 0.09285117 0.028363595 -0.060430385
0.12945884 -0.05566036 0.059696853 -0.007985915 0.048258238 0.061506215 -0.09556311 0.03024851
-0.0051025096 -0.11575243 0.0682482 0.050167758 -0.05320938 -3.102092e-05 0.08303752 -0.051464166
00000000: 2edf 813d 77fa 91bc e3e2 043d ccfc fd3d
00000010: 5b5b 7b3b 6b97 e43d 1b4e e6bd 0d0f 68bd
00000020: 331a 113d d30e 06bd 8018 d4bd 0656 1abd
00000030: 0a8e 85bd b4ca a53d 1354 933d 4cde 86bd
00000040: 362a 843d 9692 993d e59e b33d e504 ccbd
00000050: fe65 d2bd 4885 303c d058 553d d956 173d
00000060: e7c5 95bd 1364 a03d 6aac f83d 776b 07bd
00000070: cc7d 98bb 639c 2ebc e517 8dbd 7adc e6bd
00000080: 7538 c23d a6f2 d13d 1e7a 3dbc 08c0 a6bd
00000090: 305f 933c 5385 babd e094 643d e366 0b3e
000000a0: 0887 073e ac7e c23d c330 453d 9a1f f63d
000000b0: a8c1 fbbb d58b c53b 85c5 cdbd d7fa 9a3d
000000c0: f5a7 803d f854 763d b33b b83d 8aa3 bc3d
000000d0: 2c8e fabd 9a95 27bd 3962 d0bd c88e 943d
000000e0: db2e 90bc 79f7 0bbe 30af 2e3d cefa c3bd
000000f0: 5fc9 15bc 3196 7b3d b688 843d 5ba9 ab3d
00000100: 5177 cbba 3884 edbc 2a72 dcbc 559b 10be
00000110: 50d6 80bc 47c9 b23d acf6 703d 5ccd d3bd
00000120: a922 1d3d 8304 cc3d 923d a8bd e916 bb3b
00000130: 4080 25bd aebe 313d f913 9abd 85ce cc3d
00000140: 9009 ac3d e2a1 23bd a0b6 05be d40a 90bd
00000150: 2502 f9bc 6f35 113c 7353 2ebd 900b 4abd
00000160: 69f6 da3b 44f8 d7bd 7f57 3d3d 86bf d0bd
00000170: 6a36 cabc bb7a eabd cf07 85bd 92de ff3b
00000180: 56f4 fdbc 5304 d5bd 63bf ef3c add4 1cbd
00000190: a78f 6a3c e45a 1f3d 7496 50bc bd4a 0abe
000001a0: 87c1 fbbc ccf5 f0bc 7405 903d d753 bdbd
000001b0: f040 b83d 94c8 ea3c bfd7 943b 54fe aa3c
000001c0: 22ee 54bc 3ca5 ed3a e8fe be3d d8a3 b43b
000001d0: 0941 8d3d f6d2 a53d 46a6 c33d f40f 0cbc
000001e0: 94c7 813d 9699 03bb 8936 cb3d 5dab 82bc
000001f0: 9fbe 0b3d 00ad cfba b33c 20be 71aa 223d
00000200: 2041 c4bd 3221 713d b30d 28bd 725e 303d
00000210: a22a 01be ff73 543d bb40 bc3d d09c 8d3d
00000220: 8e62 113d be03 89bd 742e ee3d a4bc 453d
00000230: fa9b f6bd cd03 8ebb ac2b a6bc fc4d 733d
00000240: 8d3d 0abc efdd f33d 49db 8dbc d7a3 c6bc
00000250: c124 09bc 24ed 9c3d 28b3 bbbd 26ff df3d
00000260: 16fe 3bbd acba 3f3d f926 acbd f5fc 34bd
00000270: d10b 623c ae22 093c f03f 9dbd 7818 d0bd
00000280: f48d f9bd df99 ea3d 5cb3 523d 5a06 f8bc
00000290: d5fe 993d 88ff ea3b 579f 5a3a c5af a9bd
000002a0: 07e0 b0bd 9e8f 843d 259e ba3d c003 f0bd
000002b0: d09c c2bb 2054 0f3d 69cb 81bd 3d73 91bd
000002c0: 3988 04be 76e5 293d 4ded bf3d a502 603d
000002d0: a5cd 3abd 2016 803d 1b21 d4bd c515 83bd
000002e0: 836b 493d f836 c53d afd5 073c b93e 0fbd
000002f0: d2a8 1c3c 4f5b 08be b566 883d 9cdc aabd
00000300: 6b47 19bd d4bd babd 64ab 963c 9692 96bd
00000310: a510 d83b 404b a8bd fe76 853d 40a1 cdbd
00000320: 636b bcbd 75a3 05be 07f6 ec3d a66f 943d
00000330: 3382 7ebd 7be8 b1bc c58c 183e 4faf 5a3d
00000340: fb3b ec3d abc8 0d3b d458 373c bdcf bd3d
00000350: 4b07 08ba c01f d6bd 673b ffbb a02e 983d
00000360: 2fd5 343d dae2 5dbc d327 e0bd 69c7 cf3d
00000370: cff9 2dbd 25a1 8bbc f6a1 073e a2a5 c53d
00000380: 86f1 6b3b 1669 6a3d 01a6 963c a4eb 6f3c
00000390: 6a65 5dbd 803b f23c f165 413d c8bf 803d
000003a0: fced 54bd 43c3 dcbb 2094 08bc db23 1bbd
000003b0: 73a3 c73c c128 be3d c55a e83c da85 77bd
000003c0: dc90 043e 1efc 63bd b084 743d 5bd7 02bc
000003d0: 6eaa 453d f1ed 7b3d 98b6 c3bd b9cb f73c
000003e0: f432 a7bb 9c0f edbd b6c5 8b3d b57c 4d3d
000003f0: 14f2 59bd 761c 02b8 930f aa3d 17cc 52bd

bias f4 [8]
-0.12761225 -0.068258874 0.10976851 0.09628911 -0.02949415 0.0504748 -0.014692948 0.015622428
00000000: c9ac 02be 4fcb 8bbd 50ce e03d 3a33 c53d
00000010: b79d f1bc aabe 4e3d b1ba 70bc 36f5 7f3c

weight f4 [64, 111]
0.49740946 0.17748508 -0.019617172 -0.11092788 0.045516405 0.40083537 -0.14302337 0.017940646
0.12336151 0.031702023 0.10584485 -0.10974421 -0.14162563 -0.1783152 -0.28847188 -0.058264703
-0.08723487 0.122279845 0.23853666 -0.009163761 -0.41606137 0.030243764 -0.27899387 -0.25366676
-0.13147162 0.010455701 0.07125112 0.07868201 -0.06487647 0.06239284 0.09066614 -0.037254535
0.036833577 -0.09436009 0.07717129 -0.050100017 -0.082248695 -0.058658127 -0.09250808 0.084438734
-0.08596785 -0.080547564 0.028753683 0.05416318 -0.044206172 0.0456428 -0.010346495 -0.066505805
0.04274655 0.04793044 -0.087282985 -0.082314774 -0.010994151 -0.074264385 -0.07214648 0.0148259625
0.0071525574 0.034295164 -0.056438617 -0.043404438 -0.09184721 0.051546447 -0.08246352 0.017718628
0.07089379 0.037281357 0.055053778 0.079828985 0.00084289163 -0.037703745 0.0009366423 -0.07595084
-0.05975537 0.049134232 0.06376312 0.041335456 -0.08158938 -0.06491859 0.077799566 0.0057019666
-0.06928514 0.018599331 0.052774422 0.052878343 0.06542087 -0.042455945 0.053992026 -0.06730035
0.048433833 -0.07265728 0.00067096204 0.08484084 0.06903543 0.043182276 0.006435655 0.052404486
0.0010456964 0.077605836 0.052940525 0.09366008 -0.030913234 0.049800016 0.070109 0.046149947
-0.053518698 0.03493104 -0.04690009 -0.0832269 0.0819838 -0.08947663 0.08349607 -1.114962
-0.34463835 0.0263403 -0.066205464 0.20823029 -0.16559927 0.052057844 -0.12739594 0.1501437
0.08569153 -0.037615433 0.03608638 -0.091352716 -0.112153314 0.17608643 -0.057977576 -0.40557572
-0.122819275 0.087967865 -0.24276452 -0.022493605 -0.08144983 -0.0611586 0.1849175 0.0029979276
0.014392722 -0.05187593 0.022337519 0.07521618 0.076684706 -0.07942692 0.03485561 -0.0057820305
0.041607507 -0.045802776 -0.036095418 0.072675474 0.06194835 0.029344633 0.080676086 -0.06775357
0.08488197 -0.09141396 0.04624509 0.049814247 0.06881308 0.056534864 0.06504256 0.07603153
-0.08663102 0.08389253 -0.035245765 0.028945252 -0.0830979 -0.089916915 0.067404024 -0.08868426
0.02985283 0.07078817 0.06558306 -0.053293068 0.007883005 0.06658537 -0.0905042 -0.01194036
-0.0795371 -0.086125866 -0.04583078 -0.040255956 0.094765104 0.0012886375 -0.035522796 0.0016088337
0.04290975 0.08849733 0.00859236 0.07285801 0.007825151 0.060962997 -0.08490248 0.07452115
-0.03278266 -0.040069092 -0.06373896 0.039324336 0.083188795 0.048232295 0.049975373 -0.04570094
-0.07250477 0.0017660558 -0.029306091 0.05367797 0.026438609 -0.0082817 -0.069228515 0.04519082
-0.037181463 0.0060754716 -0.024100088 0.08586908 0.050999768 -0.050627586 0.018845856 -0.03731387
-0.019214913 0.05864034 -0.006115526 0.005664006 0.07876647 0.027057707 -0.58881754 -0.35163796
0.11817756 0.033344056 -0.019246269 -0.27889377 -0.026350897 -0.04159922 -0.01829564 0.25806934
-0.09575745 -0.44631416 0.12524366 -0.19120772 0.18472533 0.210853 -0.096968405 -0.013019934
-0.14014155 0.22917461 0.26456907 0.2766065 0.10793833 -0.044154547 -0.16711363 0.16657217
0.11312739 0.06475077 -0.045946475 0.08590513 0.046678163 -0.023523562 -0.026923731 0.09435599
00000000: 74ac fe3e a6be 353e 31b4 a0bc 282e e3bd
00000010: 696f 3a3d 4b3a cd3e b874 12be 43f8 923c
00000020: f6a4 fc3d fbd9 013d 2fc5 d83d 93c1 e0bd
00000030: 4f06 11be 4398 36be 96b2 93be f8a6 6ebd
00000040: 32a8 b2bd db6d fa3d f442 743e 9923 16bc
00000050: ff05 d5be c5c1 f73c 49d8 8ebe 9ce0 81be
00000060: 7fa0 06be 634e 2b3c 1bec 913d 0924 a13d
00000070: f4dd 84bd a28f 7f3d 2baf b93d 3698 18bd
00000080: cede 163d dd3f c1bd fb0b 9e3d ad35 4dbd
00000090: 0172 a8bd 8143 70bd e074 bdbd 37ee ac3d
000000a0: ea0f b0bd 1ff6 a4bd d88c eb3c 36da 5d3d
000000b0: 8811 35bd f2f3 3a3d 5884 29bc 3234 88bd
000000c0: 0217 2f3d b652 443d 6cc1 b2bd a694 a8bd
000000d0: d020 34bc ed17 98bd 89c1 93bd 98e8 723c
000000e0: 0060 ea3b 1679 0c3d 2e2c 67bd dac8 31bd
000000f0: 641a bcbd 5e22 533d a2e2 a8bd a826 913c
00000100: c330 913d 56b4 183d 1280 613d 617d a33d
00000110: 80f5 5c3a 3e6f 1abd 0089 753a 1d8c 9bbd
00000120: 0cc2 74bd fa40 493d 3d96 823d 5e4f 293d
00000130: 5518 a7bd 0af4 84bd 6155 9f3d 90d7 ba3b
00000140: 5ee5 8dbd a05d 983c fe29 583d f696 583d
00000150: 61fb 853d 49e6 2dbd be26 5d3d c4d4 89bd
00000160: 8e62 463d 57cd 94bd 80e3 2f3a 09c1 ad3d
00000170: 7362 8d3d e6df 303d 30e2 d23b 16a6 563d
00000180: c00f 893a cfef 9e3d 2ad8 583d dbd0 bf3d
00000190: c03d fdbc 1afb 4b3d 4f95 8f3d ba07 3d3d
000001a0: 6c36 5bbd da13 0f3d 4f1a 40bd dd72 aabd
000001b0: 1fe7 a73d 863f b7bd fdff aa3d 13b7 8ebf
000001c0: 7074 b0be 9dc7 d73c bb96 87bd 523a 553e
000001d0: db92 29be 9b3a 553d 1574 02be 45bf 193e
000001e0: 0a7f af3d a412 1abd 50cf 133d 2217 bbbd
000001f0: a3b0 e5bd 0050 343e e579 6dbd 9fa7 cfbe
00000200: ac88 fbbd 7f28 b43d 4397 78be 8244 b8bc
00000210: 2bcf a6bd 7181 7abd 035b 3d3e e178 443b
00000220: 74cf 6b3c db7b 54bd 2cfd b63c f10a 9a3d
00000230: df0c 9d3d 95aa a2bd c2c4 0e3d 3077 bdbb
00000240: a26c 2a3d b19b 3bbd cad8 13bd e1d6 943d
00000250: 8ebd 7d3d 2864 f03c 8139 a53d 62c2 8abd
00000260: 99d6 ad3d 3e37 bbbd 7e6b 3d3d 060a 4c3d
00000270: dfed 8c3d 1a91 673d 0935 853d 6bb6 9b3d
00000280: 9b6b b1bd d9cf ab3d dd5d 10bd 981e ed3c
00000290: 3b2f aabd 5c26 b8bd 1f0b 8a3d 18a0 b5bd
000002a0: ec8d f43c 63f9 903d 6950 863d d549 5abd
000002b0: b827 013c e95d 883d 445a b9bd 80a1 43bc
000002c0: 59e4 a2bd c262 b0bd 0eb9 3bbd 6ee3 24bd
000002d0: 3514 c23d 80e7 a83a 5a80 11bd 80df d23a
000002e0: 22c2 2f3d 173e b53d f8c6 0c3c 9536 953d
000002f0: 1035 003c 56b4 793d 5ae1 adbd 8b9e 983d
00000300: 1c47 06bd 7d1f 24bd 9289 82bd 8e12 213d
00000310: e35e aa3d 3a8f 453d fab2 4c3d e930 3bbd
00000320: 617d 94bd 007b e73a 5413 f0bc 6edd 5b3d
00000330: c895 d83c f8af 07bc aec7 8dbd 021a 393d
00000340: 974b 18bd c014 c73b 8c6d c5bc 21dc af3d
00000350: 22e5 503d df5e 4fbd a062 9a3c 6ed6 18bd
00000360: 9868 9dbc da30 703d c064 c8bb 2099 b93b
00000370: 5150 a13d 20a8 dd3c bfbc 16bf e409 b4be
00000380: 1407 f23d c793 083d 5aaa 9dbc 2acb 8ebe
00000390: d6dd d7bc f263 2abd bde0 95bc aa21 843e
000003a0: 7b1c c4bd 4a83 e4be e03f 003e f5cb 43be
000003b0: a328 3d3e d9e9 573e 5f97 c6bd 9051 55bc
000003c0: 4481 0fbe c0ac 6a3e 9975 873e 5e9f 8d3e
000003d0: c50e dd3d 66db 34bd d61f 2bbe e591 2a3e
000003e0: 55af e73d 0d9c 843d 5f32 3cbd 07ef af3d
000003f0: 9a31 3f3d 7cb4 c0bc 288f dcbc b73d c13d

bias f4 [64]
-0.3762866 0.40499836 0.27228427 -0.365033 -0.3044565 0.18513565 0.117557876 -0.7203989
-0.2684455 -0.43880364 -0.27398318 -0.20116456 -0.4920643 0.56903845 0.40520564 -0.30639374
-0.4135428 -0.29215786 -0.5685562 0.5114006 0.4470381 0.37939832 0.45725742 -0.48942274
-0.41186798 0.20434256 -0.64812106 -0.64850765 0.51393443 0.6207607 -0.58321303 0.3509374
-0.63215804 0.41502294 -0.55516565 -0.2282401 0.621702 -0.3195574 0.18954691 -0.30036765
-0.70079017 0.6018885 -0.19562896 0.20476392 0.58984625 -0.50607556 -0.6344262 0.27995792
0.4434598 -0.44194874 -0.3115029 0.47467875 0.29113382 -0.44523448 0.23224644 0.37672916
0.40852165 -0.3978195 0.64559215 -0.045950208 -0.33250716 0.259889 0.576494 0.370146
00000000: a3a8 c0be f25b cf3e d868 8b3e 9be5 babe
00000010: b9e1 9bbe 3394 3d3e 2fc2 f03d 106c 38bf
00000020: b071 89be dfaa e0be 8647 8cbe 15fe 4dbe
00000030: daef fbbe 81ac 113f 1d77 cf3e a4df 9cbe
00000040: e2bb d3be b795 95be e68c 11bf 26eb 023f
00000050: 2ee2 e43e 7f40 c23e a51d ea3e 9e95 fabe
00000060: 5ce0 d2be 2d3f 513e 43eb 25bf 9904 26bf
00000070: 3591 033f 2cea 1e3f 734d 15bf 11ae b33e
00000080: 1cd5 21bf e37d d43e 561f 0ebf c6b7 69be
00000090: dd27 1f3f 079d a3be 9618 423e cac9 99be
000000a0: fc66 33bf 5d15 1a3f f552 48be a2ad 513e
000000b0: 2a00 173f 2b8e 01bf c169 22bf a556 8f3e
000000c0: 2a0d e33e 1b47 e2be 4f7d 9fbe 1809 f33e
000000d0: 7e0f 953e c6f5 e3be 03d2 6d3e a5e2 c03e
000000e0: c029 d13e ffae cbbe 8745 253f 4936 3cbd
000000f0: 613e aabe 2c10 853e 1c95 133f c783 bd3e

weight f4 [64, 64]
-0.172548 0.14082657 0.14260867 -0.19152868 -0.15745273 -0.3395359 -0.16403107 -0.4324515
-0.15426697 -0.07675083 -0.1377768 -0.23142573 0.025573898 0.6231001 0.14740555 -0.018365476
0.13692783 0.20308338 -0.2567489 0.229171 0.010059495 0.06561841 0.23092216 -0.30933815
-0.2705068 -0.022507366 -0.7638411 -0.45328155 0.25904384 0.7127774 -0.2370632 0.062556125
-0.4464353 0.05575525 -0.6904419 -0.1977307 0.5560181 0.09987011 -0.17821433 0.032767586
-0.4000826 0.44006488 -0.04888916 0.13697381 0.46968865 0.041928966 -0.48994148 -0.15890516
-0.14188793 -0.024735654 0.110438064 0.47053975 -0.2610754 -0.18851349 -0.1609814 0.17029586
0.10971961 -0.024808072 0.29212338 -0.21364062 -0.14752464 -0.061963983 0.4951657 0.27356073
-0.29226407 0.7506101 0.1829302 -0.2520247 -0.09179914 0.77764225 0.45327345 -0.41776562
-0.2660761 -0.20743735 0.023160832 0.034144994 -1.046147 0.46798393 0.31280902 0.052828684
-0.7494006 -0.5091866 -0.2059314 0.15923117 0.62735206 0.35846758 0.0050711343 -0.3189338
-0.14282939 0.037574567 -0.22810252 -0.08095791 0.030571949 0.6538706 -0.0887518 0.47090584
-0.26411003 0.34476826 -0.11451132 -0.063836284 0.22130284 -0.6689711 0.43310484 -0.50239074
-0.34957418 0.14794704 -0.34356406 0.43259755 -0.044525236 -0.33215025 -0.6011843 1.010592
1.0229707 -0.5347231 -0.83468163 0.30171585 1.0582741 -0.16284963 0.331747 0.5635515
0.36014217 -0.37343436 0.12920628 -0.030560574 -0.117648065 0.29098123 0.33122626 0.23723495
0.3741367 -0.07292886 -0.19662347 0.3872933 0.067194924 0.3579121 0.11370795 0.43767148
0.15617181 0.19657551 0.044749677 0.38892943 0.12539016 -0.5013085 -0.16744405 0.15830387
-0.04080767 -0.20833567 0.31661084 -0.3387772 -0.058414865 -0.062320556 -0.1801258 0.33948022
0.3713421 0.03765959 0.86855555 0.5100189 -0.27049288 -0.545013 0.24580845 -0.095827684
0.32887545 0.053204294 0.8054328 0.20064908 -0.5609542 -0.030254157 0.17664135 -0.06266945
0.40234256 -0.53311265 0.018506568 -0.057141922 -0.48505828 0.010375734 0.5108129 0.16154331
0.15251628 0.15039754 -0.014701405 -0.41549084 0.3833422 0.15529926 0.18527184 -0.28825778
0.04165429 0.064261444 -0.1937352 0.18492743 0.24676195 0.14935727 -0.6083796 -0.22741246
-0.3546652 0.041079525 0.18894361 -0.17936684 -0.121203646 -0.30479333 -0.1673131 -0.49481592
-0.1391941 -0.07526949 -0.14409941 -0.37968278 -0.15451065 0.65625453 0.09742425 0.01069648
0.082546696 0.3181163 -0.23205835 0.30558953 0.1460952 -0.04098955 0.20278065 -0.3000908
-0.385799 0.089772016 -0.98306537 -0.64952767 0.15964805 0.5230807 -0.3897657 0.21441875
-0.5087297 -0.049085658 -0.6844198 -0.15572506 0.46961054 0.054308273 -0.1515782 0.04658845
-0.3008457 0.48309878 0.04019598 0.012021683 0.53295213 -0.109045275 -0.5535224 -0.11344523
-0.034465108 -0.026006961 0.116684355 0.45464796 -0.3541428 -0.1548515 -0.06903114 0.1947133
-0.012089468 -0.113736294 0.33560163 -0.29672822 -0.13033845 -0.02347427 0.61061513 0.29251558
00000000: 6cb0 30be d734 103e 0208 123e 1820 44be
00000010: 4a3b 21be a6d7 adbe c3f7 27be 486a ddbe
00000020: 29f8 1dbe 8a2f 9dbd 5d15 0dbe defa 6cbe
00000030: 5a80 d13c 7d83 1f3f 7bf1 163e 3273 96bc
00000040: cf36 0c3e 17f5 4f3e 9874 83be cdab 6a3e
00000050: 95d0 243c f262 863d dc76 6c3e 9261 9ebe
00000060: de7f 8abe 5e61 b8bc 178b 43bf 8514 e8be
00000070: 65a1 843e 9478 363f b2c0 72be 6d1d 803d
00000080: 2b93 e4be 9e5f 643d cdc0 30bf eb79 4abe
00000090: 3457 0e3f b388 cc3d d17d 36be 4e37 063d
000000a0: a0d7 ccbe 2f50 e13e 0040 48bd dd42 0c3e
000000b0: 087b f03e b5bd 2b3d 9cd9 fabe 09b8 22be
000000c0: 124b 11be 6da2 cabc 5a2d e23d 96ea f03e
000000d0: adab 85be ae09 41be 4fd8 24be 0a62 2e3e
000000e0: adb4 e03d 4c3a cbbc 3291 953e 9bc4 5abe
000000f0: b310 17be f2cd 7dbd 5c86 fd3e 2710 8c3e
00000100: a3a3 95be fc27 403f 0e52 3b3e 6209 81be
00000110: 3001 bcbd 9013 473f 7513 e83e 60e5 d5be
00000120: 203b 88be 756a 54be c9bb bd3c 9fdb 0b3d
00000130: 25e8 85bf 979b ef3e 8128 a03e e462 583d
00000140: b8d8 3fbf 0e5a 02bf aedf 52be 7f0d 233e
00000150: 259a 203f 1089 b73e c22b a63b 4b4b a3be
00000160: de41 12be cae7 193d b593 69be 43cd a5bd
00000170: 0672 fa3c 1064 273f 81c3 b5bd 921a f13e
00000180: 6e39 87be 7785 b03e e984 eabd 99bc 82bd
00000190: 369d 623e b141 2bbf ebbf dd3e ae9c 00bf
000001a0: 63fb b2be 6e7f 173e a1e7 afbe 6d7d dd3e
000001b0: 1860 36bd 990f aabe 37e7 19bf 145b 813f
000001c0: b4f0 823f 9de3 08bf b2ad 55bf 807a 9a3e
000001d0: 8775 873f 0ec2 26be beda a93e e944 103f
000001e0: 8e64 b83e ca32 bfbe a74e 043e 2b5a fabc
000001f0: 78f1 f0bd 7efb 943e 7d96 a93e b8ed 723e
00000200: d88e bf3e ba5b 95bd aa57 49be 4f4b c63e
00000210: 7e9d 893d 4140 b73e b7df e83d 7a16 e03e
00000220: 81eb 1f3e 174b 493e 704b 373d c221 c73e
00000230: 4766 003e c155 00bf 7476 2bbe 691a 223e
00000240: f225 27bd f255 55be d11a a23e 3574 adbe
00000250: 6d44 6fbd d743 7fbd e672 38be 5ad0 ad3e
00000260: 8d20 be3e f140 1a3d a859 5e3f 9990 023f
00000270: 0b7e 8abe f985 0bbf 36b5 7b3e 4e41 c4bd
00000280: 5d62 a83e bfec 593d d830 4e3f f476 4d3e
00000290: b29a 0fbf 91d7 f7bc 78e1 343e d758 80bd
000002a0: d8ff cd3e 127a 08bf 169b 973c a60d 6abd
000002b0: 8f59 f8be fcfe 293c a2c4 023f 9c6b 253e
000002c0: 3a2d 1c3e d001 1a3e 29de 70bc 37bb d4be
000002d0: 6e45 c43e c506 1f3e e7b7 3d3e 8696 93be
000002e0: b09d 2a3d 819b 833d 8562 46be 9e5d 3d3e
000002f0: 2aaf 7c3e 1df1 183e c4be 1bbf d0de 68be
00000300: ad96 b5be 0143 283d 6f7a 413e f1ab 37be
00000310: 9e39 f8bd df0d 9cbe 2054 2bbe 8358 fdbe
00000320: e688 0ebe e426 9abd cc8e 13be c865 c2be
00000330: 0a38 1ebe 4c00 283f 5d86 c73d 4a40 2f3c
00000340: 3e0e a93d 24e0 a23e b4a0 6dbe 3b76 9c3e
00000350: fb99 153e a9e4 27bd bba5 4f3e 80a5 99be
00000360: 7287 c5be 64da b73d 2caa 7bbf 7247 26bf
00000370: c77a 233e 9ee8 053f 5f8f c7be 9790 5b3e
00000380: 1c3c 02bf 0b0e 49bd 2336 2fbf 6476 1fbe
00000390: cb70 f03e 5a72 5e3d 5137 1bbe 88d3 3e3d
000003a0: 7308 9abe b958 f73e 8aa4 243d 98f6 443c
000003b0: 8d6f 083f 2153 dfbd a5b3 0dbf f955 e8bd
000003c0: 492b 0dbd 8d0c d5bc 35f8 ee3d 9ec7 e83e
000003d0: 3552 b5be 6491 1ebe 3360 8dbd ec62 473e
000003e0: e712 46bc 93ee e8bd fad3 ab3e c3ec 97be
000003f0: 7177 05be 1d4d c0bc 4651 1c3f 9ac4 953e

bias f4 [64]
0.40548873 0.28766802 -0.5836651 0.4562514 -0.39775625 0.40500304 0.13206397 0.07294912
0.23579091 0.43724325 -0.27667707 -0.34622532 0.2317946 0.23861489 -0.10201242 0.32783332
-0.22310278 -0.19504414 0.250544 -0.21062796 0.0244812 0.3414821 -0.49080113 0.14037575
0.38745427 -0.1964088 0.1839066 0.24253137 0.45477924 0.518895 -0.23579207 -0.062045746
0.40297735 0.08925695 -0.29840973 0.24572293 -0.20525743 0.23152074 -0.27281493 0.33141983
0.36310178 0.5122808 -0.21237063 0.48943985 -0.4560514 -0.20468818 0.30681244 0.17871764
0.12555826 0.21442667 -0.18682025 0.47373426 -0.5124057 0.3536907 -0.5894646 -0.21897078
-0.40044618 -0.30300394 0.3886487 -0.27195436 0.09229362 -0.047024522 0.17067026 0.3383655
00000000: 389c cf3e 3949 933e 136b 15bf c999 e93e
00000010: b5a6 cbbe 8f5c cf3e c73b 073e 5966 953d
00000020: 2c73 713e 59de df3e 9ea8 8dbe 7244 b1be
00000030: 905b 6d3e 7657 743e e3eb d0bd c5d9 a73e
00000040: 0e75 64be a7b9 47be 4e47 803e dbae 57be
00000050: cc8c c83c bed6 ae3e 494a fbbe a9be 0f3e
00000060: 6860 c63e 631f 49be 0352 3c3e 255a 783e
00000070: d3d8 e83e 4dd6 043f 7a73 71be ae23 7ebd
00000080: 0c53 ce3e 59cc b63d 29c9 98be cb9e 7b3e
00000090: 012f 52be c613 6d3e 66ae 8bbe dcaf a93e
000000a0: 7ae8 b93e d624 033f b077 59be dc97 fa3e
000000b0: 927f e9be c799 51be 8516 9d3e c201 373e
000000c0: 5892 003e aa92 5b3e cf4d 3fbe 4c8d f23e
000000d0: 052d 03bf f316 b53e 27e7 16bf e039 60be
000000e0: 4807 cdbe 5523 9bbe f6fc c63e 9a3d 8bbe
000000f0: 7004 bd3d c99c 40bd 2fc4 2e3e 3e3e ad3e

weight f4 [1, 64]
-2.986489 -2.9496179 2.92656 -2.9279833 2.9878213 -3.0397832 -3.0196905 -2.979183
-3.0371451 -2.9878726 3.0238917 2.9626024 -3.0161052 -3.0568752 3.0085256 -3.0559435
3.0217783 3.002611 -3.020255 2.9556646 -2.965968 -2.9570494 2.9791954 -3.0230799
-3.020225 2.9739258 -2.98149 -3.0281827 -2.9303725 -2.952322 2.9783134 3.00939
-3.030079 -2.9672787 3.0615609 -3.0342817 3.071331 -3.0392249 2.9984312 -2.9907992
-2.9786882 -2.9730182 3.0035875 -2.952441 2.9839876 3.027726 -3.0370448 -2.9768598
-3.0442727 -3.0029187 2.974839 -2.9527032 2.9548829 -2.974954 2.9918084 2.9824605
2.9652905 2.9889932 -3.013131 2.9596486 -2.9972346 2.9501483 -2.9821713 -2.995277
00000000: a322 3fc0 8ac6 3cc0 c24c 3b40 1464 3bc0
00000010: 7738 3f40 cf8b 42c0 9c42 41c0 efaa 3ec0
00000020: 9660 42c0 4e39 3fc0 7187 4140 479b 3d40
00000030: de07 41c0 d8a3 43c0 af8b 4040 9494 43c0
00000040: d164 4140 c72a 4040 dc4b 41c0 9c29 3d40
00000050: 6bd2 3dc0 4c40 3dc0 23ab 3e40 247a 41c0
00000060: 5e4b 41c0 cd54 3e40 bbd0 3ec0 bfcd 41c0
00000070: 398b 3bc0 d8f2 3cc0 b09c 3e40 d999 4040
00000080: d0ec 41c0 e5e7 3dc0 9df0 4340 ac31 42c0
00000090: b090 4440 a982 42c0 4ce6 3f40 4169 3fc0
000000a0: d4a2 3ec0 ee45 3ec0 c73a 4040 cbf4 3cc0
000000b0: a7f9 3e40 43c6 4140 f15e 42c0 df84 3ec0
000000c0: 5dd5 42c0 d22f 40c0 c363 3e40 17f9 3cc0
000000d0: cd1c 3d40 a565 3ec0 ca79 3f40 a2e0 3e40
000000e0: 52c7 3d40 aa4b 3f40 23d7 40c0 e26a 3d40
000000f0: b1d2 3fc0 3bcf 3c40 e5db 3ec0 9eb2 3fc0
