evaluation/swimmer_ppo/swimmer_s0/pyt_save/model.pt (torch_old, 43213 bytes, 12 tensors)

log_std f4 [2]
00000000: 4304 71bf eb25 93bf
-0.9414713 -1.1495947

weight f4 [64, 8]
00000000: 040d 3bbc 295f 5d3e 847c 91be 330d 97be
00000010: 8f3d 61be 54d9 113e 663f 013a 4f2f 2e3e
00000020: 2d8c 3ebc e14b ce3d ec0b c0bd f163 fabd
00000030: e0b8 c3be 0e1e 40be 10be 1ebe fe13 61bc
00000040: e41c 1c3e 6529 903e 1e58 85be b19c 7fbd
00000050: 687d 3b3e 57f4 a93e fb1b f2bd b9ed 973e
00000060: f9b7 80bd 337c 3e3c 0aa7 9a3e 811e 84be
00000070: 2f60 70be d59d e2bd 0c3f 65be 007b 063f
00000080: 13c4 5abe 08db 2bbe 74b5 74be 4569 cebe
00000090: db53 6ebe ce51 b03e 90bc 133e e499 573e
000000a0: 5fee 0cbc b023 30be f205 513d e09f cebe
000000b0: 9219 40be 7be4 6abe cb6c 873e 206d 923e
000000c0: 4761 18be 0480 8abd b297 5a3e a27b ba3e
000000d0: 259f f23d 8352 e2bb 41f1 833e 8854 68be
000000e0: 9357 953d 3ab4 91be d9c4 46be a58b 7dbe
000000f0: eb3f 1c3e eb03 533e 8e42 79be 00a9 d13d
00000100: 1f51 433e b5c6 663b f570 fb3d b4ce 933e
00000110: b7c1 dd3d 5734 033f b579 c7be 1bf7 5abe
00000120: fa7d 243e 720e 9b3e 197a 983e 5186 b43e
00000130: 22b5 b53d 41e9 acbe fee1 873d db02 a4be
00000140: c530 ddbe 5f65 f03e 17a5 373e 3950 f1be
00000150: b02c 0e3e ebb9 00be 07c7 dc3b f4b4 b6bd
00000160: 19eb 423d e9e1 2ebe a5be 3e3e 98f5 773e
00000170: c080 c43e 06a8 283d a39b a8be 1514 49be
00000180: 5733 353e d732 033e 2138 99be bf6b 8cbe
00000190: 07aa ae3e d03e 753e b889 02be 5b63 febd
000001a0: 9dde b8be bc40 b33c 8296 92be 074c a3be
000001b0: cbf1 18be 9b0a cd3d d378 1cbe 8182 103e
000001c0: 289f b2be 7bc1 e33e 5bab 703e 8617 e2be
000001d0: f769 e8bd d135 5fbd bae3 d03d 766c fd3d
000001e0: d516 fe3d cbc7 d43c e06f 30be 0cd1 3e3e
000001f0: 0fb9 e2be 2f0a 3fbe a444 01be d7f5 a0bd
00000200: 6cd5 49be 70dd 95be 063a 06bd 9c1c 8c3d
00000210: d1ad 7ebe cc6a 00bd 2a3a 8e3e c3be 6fbd
00000220: 8afa 003d e566 cd3b 6e94 b03d 379b 803e
00000230: d92a 003f c147 6a3e da36 b93e 4a8c a6bd
00000240: c691 a5be 252a 6ebe ccd2 7e3e 6789 963d
00000250: 9b37 81be 4830 80be 8456 d7be 3784 61be
00000260: 382e 0fbe 8fde 7a3e ad01 473e 8194 82be
00000270: 6d59 3e3e e6e8 acbe 6c7d 84bd 0dfc e7bd
00000280: 34b2 9dbd 2031 6abd ed6d a4be c58f c0be
00000290: db13 f3bd f5b4 b83c a40b 0dbe dcd9 e73d
000002a0: ddd7 83be f145 f4bd 74c7 a03e 394f f6bc
000002b0: 12b6 d33e 740a 453e 77b2 c7be c21a 853e
000002c0: 1ef6 7dbd cc89 2dbe 0b84 833e e957 78be
000002d0: 4717 693c 6998 a3bd 2c5f 6b3e 4253 203e
000002e0: b4bc 4b3e dc60 163e 7768 a3bd 1082 1bbe
000002f0: 0d31 b1be f1ef 523e 843a a03e 78fd 3a3e
00000300: 58ff 87be 243c 283d c7e8 65be dc31 6fbe
00000310: 15af a0be 39f7 0f3e d507 43be 2be8 63bc
00000320: 0946 783c 7a29 753e 1c2d 7fbe 36d9 a2be
00000330: c631 7dbe f957 803e efd6 7dbd b25b df3d
00000340: 50de eb3d e171 9e3d 667c 1a3c f559 7bbd
00000350: 8d35 be3c e208 d3bc eb7d a6bc 76ff 603d
00000360: 34fd 97be 86cf 18be 0621 b23e 7165 b1be
00000370: fa1a a0bc 2b6d bc3e dcf9 113e 5f83 dcbc
00000380: b88d a4be e159 603e 2723 73be 8c72 bb3c
00000390: af5f 48bb ee7c 1cbd 417e 37bd 3b57 e03e
000003a0: f582 d03b 845a c23e 2732 7c3e d958 f7bd
000003b0: b05b 523e 13e3 76be 2dff 2fbe 57e9 173e
000003c0: c86b 023e ae0d 953e b8af 0fbe d18f d5be
000003d0: 945d 193d 1420 e4be 4343 d43e c7e3 5abe
000003e0: 9749 a23c 3645 09bd eaf3 51be c2e1 063d
000003f0: fe98 893e 558d b9bd 0c9b 4bbe 749b 2bbe
-0.011416677 0.21618332 -0.2841531 -0.29502258 -0.21996139 0.1424306 0.00049304066 0.17010234
-0.0116301 0.100730665 -0.09377274 -0.122260936 -0.38226986 -0.18761465 -0.1550219 -0.013737677
0.15245396 0.28156582 -0.2604379 -0.062405292 0.18309557 0.3319423 -0.11821743 0.29673555
-0.0628509 0.011626291 0.30205566 -0.25804523 -0.23474191 -0.1106526 -0.22387332 0.52531433
-0.21363859 -0.16782773 -0.23897344 -0.4031469 -0.23274176 0.34437412 0.144274 0.21054798
-0.008601754 -0.17201114 0.05103106 -0.4035635 -0.18759754 -0.22938721 0.2645019 0.2859888
-0.14880858 -0.06762698 0.2134693 0.3642245 0.11846761 -0.006906809 0.2577 -0.22688496
0.07292094 -0.28457814 -0.19411029 -0.24760301 0.15258758 0.20606963 -0.24341795 0.10237312
0.19073914 0.0035213653 0.12277404 0.2886864 0.10827964 0.5125174 -0.38960043 -0.21383326
0.16063681 0.30284458 0.29780653 0.35258725 0.08872439 -0.3377171 0.066349015 -0.3203343
-0.4320127 0.4695234 0.1793407 -0.47131518 0.13884234 -0.12570922 0.006737593 -0.08921233
0.047587488 -0.17078365 0.18627413 0.2421478 0.38379478 0.041175865 -0.3293124 -0.19636567
0.17695366 0.12812363 -0.29925635 -0.27425954 0.34114096 0.23949742 -0.12747848 -0.12421294
-0.3610734 0.021881454 -0.28630453 -0.31893942 -0.14935987 0.100117885 -0.15280466 0.14112283
-0.34887052 0.4448355 0.23502867 -0.44158572 -0.11348336 -0.054494683 0.101996854 0.12374203
0.124066986 0.025974175 -0.17230177 0.18634433 -0.44281814 -0.18656228 -0.1262384 -0.0785939
-0.1971032 -0.29270506 -0.03277018 0.06841394 -0.24870993 -0.03135185 0.2777875 -0.058531534
0.031488933 0.0062683695 0.08622061 0.2511842 0.5006538 0.22878934 0.3617466 -0.08132227
-0.3233778 -0.23258264 0.248851 0.07350426 -0.25237736 -0.25036836 -0.42058194 -0.22023092
-0.13982475 0.24498962 0.19434233 -0.25503924 0.185888 -0.33771437 -0.06469235 -0.11327372
-0.07700005 -0.057175756 -0.32115117 -0.37609687 -0.118690215 0.022547225 -0.13773972 0.1132085
-0.25750628 -0.11927403 0.3140217 -0.030067073 0.41349846 0.19242269 -0.39003345 0.25996977
-0.062002294 -0.16947097 0.25686678 -0.24252285 0.014226741 -0.07988054 0.22985524 0.1565676
0.19896203 0.14685386 -0.079789095 -0.15186334 -0.34607735 0.20599343 0.31294644 0.18260753
-0.26562 0.04107298 -0.22452079 -0.23358864 -0.31383577 0.14059152 -0.19045956 -0.013910334
0.015153416 0.23941603 -0.24919552 -0.31806344 -0.24726018 0.25067118 -0.061972555 0.10906161
0.11517012 0.077365644 0.009429073 -0.061365087 0.023218894 -0.025761072 -0.020323714 0.054931127
-0.29685366 -0.14922914 0.3479082 -0.34647706 -0.019544113 0.3680204 0.1425547 -0.026918111
-0.32139373 0.21909286 -0.23743878 0.022881769 -0.003057461 -0.03820508 -0.04479814 0.43816552
0.0063632675 0.37959683 0.24628507 -0.12077493 0.20542789 -0.2411006 -0.17187186 0.14835106
0.12736428 0.29112 -0.14031875 -0.41711286 0.03744276 -0.44555724 0.41457567 -0.21375953
0.019810481 -0.03351327 -0.20503202 0.032930143 0.26874536 -0.0906016 -0.19883364 -0.1675852

bias f4 [64]
00000000: ad10 f6bd 44b1 15be 5e18 ab3d 8a53 133e
00000010: 9e5b 26be d555 bfbb 32c2 763e 383d b9bd
00000020: 7b1f ce3d e68a a6bd e7db 5c3e 68f2 afbe
00000030: 4a4e 63be a679 40be 1976 b33e 3e62 d1bd
00000040: b9c6 88bd 421d 3fbe f6b4 cd3e c0ff af3e
00000050: 990a a0be 937c 7abe 77a5 82be 748a b63c
00000060: 6734 01be 6620 8bbe 60a0 1fbe 3774 923c
00000070: 3717 65be c046 ba3b 6e9f c6bd f9b0 32be
00000080: 3b36 253d ce16 903e 4d27 44be 7f55 293c
00000090: c235 08be e18b b23e 82bd c1be 4eff acbe
000000a0: 4902 b33e f743 73be 7c0f 5b3d 389f c3bc
000000b0: d1ee fdbd 5a66 71bd e6b3 633e 81b5 35bd
000000c0: eb6b b7be cb74 77be adef aabd 053d 333e
000000d0: c894 6cbe e3f0 c73e d9df d6bd b0d9 a8bd
000000e0: e93c 853e 4883 4e3e 686a b43e b5c2 063e
000000f0: ee77 ebbd bd06 97be 1be8 edbd 9fc9 983e
-0.120148994 -0.14618403 0.08354257 0.14387336 -0.16245887 -0.0058390894 0.24097517 -0.0904488
0.10064598 -0.081319615 0.21568261 -0.3436463 -0.22197834 -0.18796405 0.3505104 -0.10223816
-0.06678528 -0.18663505 0.40177125 0.3437481 -0.31258085 -0.24461584 -0.25516865 0.022282816
-0.12617646 -0.27173156 -0.15588522 0.017877681 -0.22372137 0.0056847036 -0.096983775 -0.17450322
0.04033492 0.281424 -0.19155617 0.010335325 -0.13301757 0.34872344 -0.37839895 -0.33788532
0.3496268 -0.23756395 0.053481564 -0.023879632 -0.12399066 -0.0589355 0.22236595 -0.04436255
-0.35824522 -0.24165647 -0.08346496 0.17503746 -0.2310363 0.3905097 -0.10491914 -0.082446456
0.26023033 0.20167267 0.35237432 0.13160212 -0.11497484 -0.29497328 -0.11616536 0.29841325

weight f4 [64, 64]
00000000: 726d 2f3c 390d bdbd cdfa fb3d 3acc ef3d
00000010: 8b7c e4bc fef6 02be a33d febd d5d2 883c
00000020: 36e3 e63c 94f1 0cbd 7da8 833d 6993 4e3d
00000030: 130c 073e ce76 023e c985 c03c de11 cfbd
00000040: a423 27be 2f7e 183e aa7a 923c 6d84 813d
00000050: 5477 b2bd ad8d c83d 22c6 e43d 1b70 223e
00000060: c39d ccbd 5e94 b5bc 302c 74bd ea35 c33d
00000070: 8d74 a1bc 0673 86bd b425 563d c4b3 81bd
00000080: cebd 253b 2a62 8dbc 632c 7dbc ab31 c1bd
00000090: 009d 033e c579 80bd 50fa 203c d107 873d
000000a0: 84a4 9a3d e0ff 393c db22 f93d 0331 bf3b
000000b0: 3a54 84bd e891 9c3d c071 1b3c d38f efbd
000000c0: 5da1 1bbd 7807 b1bd 243c c23d 8171 d83c
000000d0: 4066 0cbe 9bca a7bc fe3e ac3d ce26 1bbc
000000e0: 8200 563d c6d0 1a3d e1c5 ad3d d47c 2bbd
000000f0: ff87 81bd 48ad 1ebe 75e7 f4bd 82ee 0f3d
00000100: 887b 8a3b 3fda 5f3d b3df 133d 4614 6dbc
00000110: e40c 323d 800c 063e 26e1 e1bd 0513 dd3d
00000120: 7f27 9cbd 20da 13bd 5816 973d cf70 aabd
00000130: ba02 6a3e 2926 31bd 7fb9 10be bd02 d6bd
00000140: 335b 1fbc 755e 073e d95f 16be 2e5e 7c3c
00000150: 372e 4e3d 8d04 e6bc b8b6 ee3d 2daf 35bd
00000160: 99b3 a63d 6d3d 433e 7cd3 363d 1a6d 1e3e
00000170: 7b89 72bd ad48 a83d 0fda acbd 646d eabc
00000180: 8572 ddbb 102b 0c3d 29ea 453d 6cb1 a93d
00000190: eca5 debc 64e6 fabc baac 963d 0f1b 1cbd
000001a0: d240 b83d bdef 21bd c410 0ebd 43bc 403c
000001b0: a3bd 7d3d 416b 0e3e e8e2 c5bd c928 fbbd
000001c0: 7dc8 f23d 6440 553b 6ed6 e03d 4f79 83bd
000001d0: b157 7a3d 9ab4 b23d f4ca 063d a9e8 29be
000001e0: aec8 6c3d 2f83 87bd 2a7f 023d f18d 483d
000001f0: 8114 87bd 8bcd bd3d e0a7 a6bd a17a 643c
00000200: 98a5 8bbd 1cb2 0ebd 4897 973d fcbd e93d
00000210: d579 09be a1c2 0a3d 231e 99bb 4b8d 9dbd
00000220: befe a8bd 5ffd b2bd ce09 353e 9a5b 213c
00000230: 2330 62bb 4072 e63c 3ba3 2f3e cf3d 013e
00000240: c99d 613d 941f 8abd db43 183c 7ed1 1dbd
00000250: 7635 c6bd 8c4d cc3c 491a d93d 892e e0bd
00000260: f1df 193d d243 a5bd c336 86bc 7e2d 173d
00000270: be25 db3b efd6 093d d362 05be ec25 0c3e
00000280: 26e8 913c bfbe d0bd 919e ff3c de76 b8bd
00000290: 2574 9fbd 2bf4 1e3c 7168 b53d 216c a3bd
000002a0: 4683 ba3d 183a 9e3d 1fc6 e13d 3b08 b0bd
000002b0: 316c a2bc b035 d4bd aa35 aebd 9660 903c
000002c0: 6003 723d 18fb 013e 1708 80bd 8ddb af3d
000002d0: 6011 62bd 1b7b c03d 0275 81bd a3e4 aabd
000002e0: c7a0 523d be8d 853d a0ac d1bd d9e0 aa3d
000002f0: 918e d33c 81ef 12be 7e36 a3bd 67d2 b33d
00000300: e37d 28be 1399 60bd 7d2f b43c 4288 c5bd
00000310: 1ef7 11bd eea7 973d 35da e13d 4ded abbd
00000320: fa32 b23d 652f 78bd 3ae1 013e 49a4 d2bd
00000330: 057c 43be b76d 4c3d 6dfb 473d 1070 373d
00000340: b4af 41bd c642 7cbd 68a3 1b3d c8b3 cfbd
00000350: 507e 56bd 00e7 093d 719b 23bc 12db 65bb
00000360: b1b9 8f3d a115 babc 2845 96bd 8a32 c2bd
00000370: c936 44bd e5fe 66bd 7f30 ffbc fa73 08bc
00000380: bb71 333d f218 76bd bc26 e03d 3f27 bebd
00000390: 5c20 a13b f366 013e 19b0 123e 9ed9 50bd
000003a0: 5a8b fc3c b969 95bc a53b 10bd 826a 43bd
000003b0: 5d5d 0a3d ee78 e9bd 9370 9b3d 40c0 a43d
000003c0: 4cbb 9dbd 4510 063e 01ae 45bd 3f48 b93c
000003d0: af73 1e3e b1df 9dbc f03a 433d a315 1c3c
000003e0: 8326 1ebc e499 49bd fed9 9bbc bacb 97bd
000003f0: a229 0c3d 0734 b7bb bee9 873d 5402 a3bc
0.010707246 -0.09231038 0.12303696 0.11708875 -0.027891418 -0.12789533 -0.124141 0.016702095
0.028184514 -0.034410074 0.06428621 0.05043355 0.131882 0.12740633 0.023501294 -0.1011083
-0.1632219 0.14891885 0.017880756 0.06324086 -0.08714166 0.097926475 0.11170603 0.15863077
-0.09991028 -0.022165474 -0.059612453 0.09531768 -0.019708896 -0.06564908 0.05228205 -0.06333116
0.0025290134 -0.017258722 -0.015452477 -0.094333015 0.1285286 -0.06273226 0.009825304 0.06593288
0.0755091 0.011352509 0.12164851 0.0058347 -0.064613774 0.07645017 0.009487569 -0.11697354
-0.037995685 -0.08644003 0.09484127 0.02642131 -0.1371088 -0.020482352 0.08410452 -0.009469701
0.052246578 0.037796758 0.08485008 -0.041867092 -0.06324767 -0.15495789 -0.119582094 0.03513957
0.004226152 0.054651495 0.036102008 -0.014470166 0.043469325 0.13090706 -0.11029272 0.10794643
-0.07624721 -0.036096692 0.073773086 -0.08322298 0.22852603 -0.043249283 -0.14133261 -0.10449741
-0.009726333 0.13219626 -0.14685 0.015403314 0.050337043 -0.028078342 0.116559446 -0.044356514
0.08139724 0.19066401 0.04463528 0.15471306 -0.059213143 0.08216987 -0.08440029 -0.028616615
-0.0067580366 0.034220755 0.048319016 0.08285794 -0.027178727 -0.030627437 0.07357164 -0.038111743
0.089967385 -0.039535273 -0.034683958 0.011763635 0.06194843 0.13908102 -0.096624196 -0.122636385
0.11854646 0.00325396 0.10978399 -0.06419622 0.061118785 0.08725853 0.032908395 -0.16592659
0.05780857 -0.06616818 0.031859554 0.04896349 -0.06595708 0.0926772 -0.08137488 0.013945253
-0.06818694 -0.034837827 0.074019015 0.1141319 -0.13425381 0.03387702 -0.004672782 -0.07692965
-0.08251713 -0.08739733 0.17679521 0.0098485 -0.0034513555 0.02813065 0.17152111 0.12621234
0.055082116 -0.06744304 0.009293522 -0.038529865 -0.096781656 0.024939321 0.106007166 -0.10946376
0.037567083 -0.08069576 -0.016383534 0.03690862 0.006687849 0.033652242 -0.1302598 0.13686341
0.017810892 -0.10192632 0.03120354 -0.09007047 -0.07785825 0.009701769 0.08857811 -0.07979608
0.0910707 0.07725924 0.11024117 -0.0859532 -0.01982698 -0.103618026 -0.08506329 0.01762418
0.05908525 0.12693441 -0.06251543 0.08586798 -0.05519235 0.093984805 -0.063211456 -0.0834439
0.05142286 0.06521176 -0.10238004 0.083436675 0.025824817 -0.14349176 -0.07969378 0.087803654
-0.16454272 -0.054833483 0.0219953 -0.0964513 -0.03563606 0.07405077 0.11027948 -0.08394871
0.08701129 -0.060592074 0.12683573 -0.10285241 -0.19090278 0.04990932 0.048823763 0.044784606
-0.047286704 -0.061587118 0.037997633 -0.101417124 -0.052366555 0.033667564 -0.009985791 -0.0035073203
0.0701784 -0.022715392 -0.07337409 -0.09482296 -0.04790381 -0.05639543 -0.031151054 -0.008328432
0.043809634 -0.060082383 0.10944888 -0.09284829 0.0049171876 0.12636928 0.14324988 -0.050988786
0.030828167 -0.018238889 -0.03521313 -0.047708996 0.033780444 -0.11400019 0.07589831 0.08044481
-0.0770174 0.13092144 -0.048261646 0.022617457 0.15473817 -0.019271703 0.04766363 0.009526643
-0.009652737 -0.049219027 -0.019024845 -0.07411905 0.03421939 -0.005590919 0.0663638 -0.019898571

bias f4 [64]
00000000: d3c1 fa3c 17ba 29be 360a 80bd 6c5a f63d
00000010: 105b 723d 6be0 3c3c 5e25 7dbc b3d6 10bb
00000020: 59cf 783d ea04 d3bd 8535 f5bc cac1 e1bd
00000030: 5794 dabd e188 81bc bd58 203b 0b6b cb3d
00000040: 6499 4bbc 95cd 5ebc 36b1 ed3b 1b92 593d
00000050: 15c3 8fbc 6435 edbc 272f 2bbd 2f78 dfbd
00000060: 9ab9 babc 5517 08be 5e11 b0bd 4cc0 4fbd
00000070: 9a47 dc3d 3791 f6bd 7e99 7e3d a498 003d
00000080: 639e 96bd 2366 a23d 42b8 6ebd fbca a6bd
00000090: f2d6 aebb 03c6 1a3d f298 f7bd 5048 2dbc
000000a0: 0f9e fe3c 29cf d1bd 294b 20bd 88ac 00bd
000000b0: a154 dbbd 23e3 003e f752 bebd de6b 823c
000000c0: 293c 973d 19fb debd 6f3e d53c 0eab e8bd
000000d0: d95d e13d 15f9 4a3d c1db 953c f2f0 2dbe
000000e0: 69ed 303d 5102 4a3d 9b72 9ebd fbed 05bd
000000f0: 4070 d8bd 47bb f6bd cac2 55bc af94 013e
0.03061 -0.16574894 -0.062519476 0.12028965 0.059168875 0.011528115 -0.015450804 -0.0022100627
0.060744617 -0.10303672 -0.029932747 -0.110232905 -0.10672825 -0.01581234 0.0024466955 0.09932526
-0.012426708 -0.013598819 0.007253791 0.053117853 -0.017549077 -0.028956123 -0.041793015 -0.10911595
-0.02279358 -0.1329015 -0.085970625 -0.050720498 0.107558444 -0.12039416 0.0621581 0.03139557
-0.073544286 0.07929637 -0.05828119 -0.08144184 -0.005335682 0.037786495 -0.12089719 -0.010576323
0.031081228 -0.10244591 -0.03913418 -0.03141454 -0.10709501 0.12586646 -0.09293168 0.015920576
0.073845215 -0.10887737 0.026030747 -0.11360751 0.11004228 0.04955395 0.018293263 -0.16986445
0.043195162 0.049318615 -0.07736703 -0.03269766 -0.10568285 -0.12047439 -0.01304693 0.12654375

weight f4 [2, 64]
00000000: 2619 42bb b109 043e e15b d3bd 8e66 e8bd
00000010: 2281 95bd c811 4ebe 0048 df3d 1040 1d3e
00000020: 236a 02be ab06 263c 9c37 8bbd 0b8f 62bd
00000030: 0b0b 6b3d 627c a9bd c57b 05be 18f7 c63c
00000040: bb92 173e a06f 023d 796f 0abd 2df2 2e3d
00000050: 78e9 88bd 1206 043e e43a 4e3e 7746 013d
00000060: 808e 86bd 9a4d 073e 9b57 163e 2cb7 02be
00000070: d383 c1bd 63db 30be ce19 073e 0064 073e
00000080: 6fa9 9bbd 33ce 703d 1068 f93d f053 dabd
00000090: 164e ab3d 11fa de3d be0a c13d ef7b 743d
000000a0: eeda 003d d3b4 b93d 114d 6b3e fec6 cdbc
000000b0: bd39 193e 2297 a5bd 4bf9 423e c683 d5bd
000000c0: 4475 50be b875 5d3d 0b1d 7f3d fff8 1c3e
000000d0: da48 903d 5a86 643e 7f47 e03d f3b0 a93d
000000e0: e84d c2bd 5d7c 923d 21ea 83bd a8e7 bcbd
000000f0: b7fa e3bd 2991 9c3c 6377 a53d 48cd 12be
00000100: d17d 2b3e 4b93 9739 5b52 2f3d de0e 37bc
00000110: eff7 e1bd 6435 e8bd 80c3 8f3c 0f48 03be
00000120: b3bf 203e 0f02 fabd 849c 0ebe b555 bfbd
00000130: d0eb 393e a604 8abd d43f 493e b245 083e
00000140: 69fb a13b a946 c13d 8c8a bd3d f5ec ebbd
00000150: 38cd dcbc e860 373e f06a b83d f607 9ebc
00000160: db3e 9ebd 60b2 5a3d f6a5 903d a6d8 793c
00000170: 0e29 e5bd ad59 b4bd 0767 d1bc 87eb 6b3d
00000180: f92f 41bd 3187 d6bd 1861 b1bd 9f38 093e
00000190: 010f 16be 1ea3 c8bd 4a3d f63d 2269 753e
000001a0: b595 18be 06bd 0bbe a4a3 aabd bbdc 493e
000001b0: 7f73 0cbe 0714 85ba 9ed1 093e 0469 1fbd
000001c0: aa77 b83c 170c d5bd 0efc 64bb ab29 223e
000001d0: 6957 a53d c1e9 853e 7ecc 9bbd 886f 32bd
000001e0: 2a63 18bc 38b6 1b3e 9dcd 04be 3354 9bbd
000001f0: e3b2 5dbd 4dc6 4f3d 65a2 f03d c671 ca3c
-0.002961704 0.12894322 -0.10320259 -0.11347686 -0.07300021 -0.2012397 0.10902405 0.15356469
-0.127358 0.010133426 -0.06797716 -0.055312198 0.05738358 -0.08275677 -0.13035496 0.024287745
0.14802067 0.031844735 -0.033797715 0.042711426 -0.06685156 0.1289294 0.20139652 0.03156134
-0.065701485 0.13213196 0.14681856 -0.12765187 -0.094489716 -0.1727119 0.13193437 0.1322174
-0.07600676 0.058790397 0.121780515 -0.10660541 0.08364503 0.1088754 0.09425877 0.059688505
0.031458788 0.090676926 0.22978617 -0.025119301 0.14963432 -0.08085467 0.1904041 -0.104255244
-0.20357233 0.054067343 0.062283557 0.1532936 0.07045145 0.22316876 0.10951137 0.082857035
-0.09487516 0.07152627 -0.06441141 -0.092238724 -0.111318044 0.019112187 0.08079412 -0.14336121
0.16747214 0.00028910706 0.04280315 -0.011172978 -0.11033618 -0.113383085 0.017549276 -0.12820457
0.15698127 -0.12207424 -0.13926893 -0.09342519 0.18156362 -0.06739168 0.19653255 0.13307837
0.0049433005 0.094373055 0.09254941 -0.11519805 -0.026953325 0.1790806 0.09004772 -0.019290905
-0.077268325 0.053392768 0.070629045 0.015249407 -0.11189471 -0.08806167 -0.025561823 0.057597663
-0.04716489 -0.104750045 -0.08661097 0.13400505 -0.14654161 -0.09796737 0.12023409 0.23965886
-0.14900859 -0.13646325 -0.08331993 0.19713108 -0.13715933 -0.0010153063 0.13458869 -0.03891851
0.022517998 -0.104026966 -0.0034940275 0.15836208 0.08073313 0.26154903 -0.07607363 -0.043563396
-0.009300986 0.1520623 -0.1296906 -0.07584419 -0.054125678 0.050726224 0.11749724 0.024712455

bias f4 [2]
00000000: ad21 0abe 1229 abbd
-0.13489409 -0.08357443

weight f4 [64, 8]
00000000: f980 0abf 8ba1 1d3f 231e e23e 5336 193f
00000010: 6a5d f03e 11cd 023f 55be 683c a206 5cbe
00000020: 5a21 ba3e c19d 0e3e da6a f23d b688 89be
00000030: ad0f f9bd 74d8 d5bb a750 20bd 5f02 21bd
00000040: a9e3 1dbe e11a 5dbe 6763 413e 39fc 9ebd
00000050: 1567 a73e 49a0 adbe 735b 1e3e 4f1f 733e
00000060: 3c1d f8be cc77 90be 3fb1 99be b598 dc3e
00000070: 87ba 773d 4ff7 783e 0e10 553e 2bd8 6c3d
00000080: 8108 413d 9a4c 39be 013a 073e 7d9d 22be
00000090: e750 4c3f 4cad 8b3b 182b b0be 7dc4 57bd
000000a0: 4b47 aabe e9b7 143e 2183 a83c 9438 6e3e
000000b0: 3895 e73e f5ec 0cbf 74bc 9b3b db93 f9bd
000000c0: 3a90 2abe dcac eebe 2f57 c2be 5716 09bf
000000d0: 618c 893e 404a bfbd 2e53 b73d 6a0d c7bd
000000e0: f9d8 8a3d 12c1 fb3d bedf 543e d484 1f3e
000000f0: f296 86ba 7e5b 0cbe d7d2 843c 251c ce3d
00000100: 6ac3 bf3e 39aa 15bf edeb bebe e908 c1be
00000110: 837d d0be 2afe 5dbe 2196 b43d acfa 9a3e
00000120: 246c 32be 17bb a1bc 0b72 4bbe 05c1 bd3c
00000130: 374f 8d3e 0cc8 ca3e ccff 103e 66ea a53d
00000140: b167 d53e 872f 70be cbb6 06be 0add 20be
00000150: 9c54 02bf d45f 903e cd70 4fbe a860 e2bd
00000160: c06f 8bbe 0c15 6ebe 2596 7abe 8aa6 a73d
00000170: 63de 953e dfdb 43be db95 5cbe 5cc5 a83a
00000180: 4e7c 2bbe 4cd5 20be 9f43 653e e90c 95bb
00000190: 403c 3cbe a331 b43d be10 1bbe dfcc a83d
000001a0: 570b 633e 90ce 8cbe 418d bd3e c706 17bf
000001b0: 18a9 a83d 75c3 45be 864e 9bbe ebdd 893e
000001c0: 741c 0bbf 8ad7 a73e 064c a03e 2e85 363f
000001d0: 3102 06bc 6919 fd3d 9e25 ae3d 067b 933a
000001e0: 2810 533e a3e0 74be ed3f 253d 0bc4 c0be
000001f0: 98a2 19be 615f 643c 5d53 133e 9562 883d
00000200: 5e86 67be 9729 d3bd 0b6e 85be 3e34 cb3d
00000210: 2177 cdbe c455 25be e15c 553d f3d6 3dbc
00000220: 1c4b 45be dcb1 cbbd 6c57 c1be b078 0c3d
00000230: 6fa1 a9be d71b 81be 2089 37bc b189 e93d
00000240: 3117 99bc 08d8 b23e b507 f33a 5a9f 863d
00000250: 0ec5 bd3e 2286 8b3d d09e 5cbe 1500 b2bc
00000260: 0a3c 833e bea2 67be e08c 423e 0e4e 643b
00000270: 7dbb 243e c4a8 73be 2bcb 8abe 656b 9bbd
00000280: e8b2 393e 6487 b3bd fcad 9c3e ef6e 57be
00000290: a521 a3be f229 c3be ae06 c7bd aa61 183e
000002a0: 773b 87bd c94b 45be c909 cfbb 3fd5 d7be
000002b0: 3d0f cebc f539 433e 75a1 01bd 388e 12be
000002c0: ea82 b43e a570 ea3d fc2c a03e 7261 f9be
000002d0: e15e 963e b9b4 3bbe 9c27 aebe 87be f03c
000002e0: db1f 15bf e0a9 233f c612 973e ffa1 893e
000002f0: bd88 3c3f 1701 063f 6a5e a0bd d497 81be
00000300: d0ad e03e 889a b83e fa21 a63e 0806 58bd
00000310: c86d 10be 93ad abbd 4788 1fbd df16 44bd
00000320: 55bd a33d 1921 43bb f789 cf3c 5fa6 2ebe
00000330: 8bef 49be bab3 7a3e 3f17 203e 6708 4f3c
00000340: 672e a8be 2f0b 58bd 098b eb3d 6ba0 303e
00000350: 404a da3b a1d2 b53d a00d 273e c0f5 133d
00000360: 7c88 4e3e 2c9d 86be cace bf3d ffa0 40bf
00000370: cd6b b53e 004b ccbe 6c1a a23d 5b11 113e
00000380: 3786 5e3c 39c3 763d 0f6f fd3e ba63 483e
00000390: a7ee 223e 84bc 7c3e 9eee 123e 784a babd
000003a0: 4bfe 5a3e f9c0 463e eadb 37bc 9d97 2fbe
000003b0: 3960 563d 6757 0fbe dcf2 64be a6f2 5ebd
000003c0: 6c7a d4bd e810 58be 9038 6fbe a4f1 083f
000003d0: fae2 963e 78a4 86be b599 42be b1c6 133e
000003e0: eab0 623d 750b c8be 015f 9d3d 02ce adbd
000003f0: 7512 ce3e 95f9 013e 4722 a1be 25b9 1cbf
-0.54103047 0.6157462 0.44163617 0.5984852 0.4694627 0.51094157 0.014205535 -0.21486905
0.3635357 0.13927366 0.118367866 -0.26862115 -0.12161193 -0.0065260474 -0.039139416 -0.039308902
-0.15418877 -0.21592285 0.18885575 -0.077629514 0.32695833 -0.3391135 0.15464573 0.23742412
-0.48459804 -0.28216398 -0.3001804 0.43085256 0.06048062 0.2431309 0.20806906 0.05782334
0.04712725 -0.18095627 0.1320572 -0.1588039 0.7981095 0.004262602 -0.34407878 -0.05267762
-0.33257517 0.14523281 0.02057034 0.2326377 0.45231032 -0.5504907 0.00475269 -0.12186404
-0.1665658 -0.46616256 -0.3795714 -0.5354971 0.26864913 -0.09340334 0.08951412 -0.097193554
0.067796655 0.122926846 0.20788476 0.15578014 -0.0010268374 -0.13706776 0.016213818 0.10063962
0.37453777 -0.58462864 -0.37289372 -0.3770211 -0.40720758 -0.21678987 0.08817697 0.30269372
-0.17424065 -0.019742532 -0.19867723 0.023163328 0.275995 0.3960575 0.14160079 0.081013486
0.41680673 -0.2345563 -0.13155667 -0.1570932 -0.50910354 0.2819811 -0.20257874 -0.11053592
-0.27233696 -0.23250216 -0.24471338 0.08186062 0.2927123 -0.19126843 -0.2154154 0.00128762
-0.16746637 -0.15706366 0.22389077 -0.004548658 -0.18382359 0.0879853 -0.15143105 0.08242201
0.22172295 -0.27501345 0.3702183 -0.58994716 0.08235377 -0.19312842 -0.30333346 0.26927122
-0.5434029 0.3278163 0.31308 0.71296966 -0.008179233 0.12358362 0.08503269 0.0011251874
0.20611632 -0.23913817 0.040344168 -0.3764957 -0.15003431 0.013938756 0.1438727 0.06659428
-0.22609851 -0.10310667 -0.2606052 0.09922074 -0.4012995 -0.16145998 0.05209053 -0.011586892
-0.19266933 -0.09946033 -0.3776201 0.034294784 -0.33130977 -0.25216553 -0.011202127 0.11403216
-0.018687816 0.34930444 0.0018541726 0.06573363 0.37064403 0.06812693 -0.21544957 -0.021728555
0.25631744 -0.22620675 0.18999052 0.0034836563 0.16087146 -0.23794848 -0.2710813 -0.07588843
0.18134654 -0.08766058 0.3060149 -0.21038412 -0.31861606 -0.3811794 -0.09718071 0.14881006
-0.06603139 -0.19267191 -0.006318305 -0.4215488 -0.02515375 0.19065078 -0.031648118 -0.14312065
0.3525613 0.114472665 0.3128432 -0.48707157 0.29369262 -0.18330659 -0.34014595 0.029387726
-0.5825173 0.63931084 0.2950651 0.26881406 0.73646146 0.5234541 -0.07830508 -0.25311148
0.43882608 0.36055398 0.32447797 -0.052740127 -0.14104378 -0.08382716 -0.038948324 -0.047873374
0.079950966 -0.0029774366 0.025334341 -0.17055653 -0.19720285 0.24482623 0.15633868 0.012636281
-0.32847902 -0.05274504 0.11501128 0.17248695 0.0066616833 0.08878065 0.16313791 0.036123037
0.20169252 -0.26291788 0.09365614 -0.7524566 0.35433808 -0.3990097 0.07915196 0.14166777
0.013581804 0.060244773 0.49498793 0.19569293 0.15911351 0.24681288 0.14348838 -0.09096235
0.21386068 0.1940955 -0.011221865 -0.1714768 0.05233786 -0.13998185 -0.22358268 -0.054430626
-0.103749126 -0.21100199 -0.2336142 0.53493714 0.29470044 -0.26297355 -0.19003947 0.14431264
0.0553445 -0.3907124 0.07684136 -0.084865585 0.40248457 0.12692864 -0.31471464 -0.6122001

bias f4 [64]
00000000: f344 dabe e828 09bf 4f70 dfbe 95af ca3e
00000010: ba48 d3be 2960 813e 5545 20be f184 093f
00000020: 2180 1c3f ad6b fd3e 6e01 613d 93bd ed3e
00000030: 0df7 d3be 31d0 f6be fde0 c5be 4ee0 0abf
00000040: 3660 113f 5cd3 643e 874f c93e 80ae a2be
00000050: 01e4 a5be 0467 fabe 4c65 a2be 2d5b 4ebf
00000060: 9fd0 dbbe dcc4 153f 0e04 41bf c6bb 54be
00000070: 7fd9 59be b358 1abf 4f29 923e 9f28 7f3e
00000080: 9ebb fc3e c0ab 483c a548 263f 5b98 a1be
00000090: e8d0 ce3e 7fac c63e a54a 10bf cd74 78bd
000000a0: 76ee 0abf 9ec6 1e3f 53a3 d83e 2e02 eebe
000000b0: 138b 743e 44ba ca3e dfbb 2abf 83b4 5abe
000000c0: 9509 003f 3d63 01be 99dc f93d 540c 8d3e
000000d0: 62bf db3d 38db 2cbf 2c17 9a3e 4675 1bbf
000000e0: da2b 113f 8240 1e3f 13d1 773e a4b9 7bbd
000000f0: dc19 1abd 7779 f3be 25a5 d7be e1c0 a3bd
-0.4263073 -0.53578043 -0.43640372 0.39587083 -0.41266423 0.25268677 -0.15651448 0.5371848
0.6113301 0.49496213 0.054933004 0.46433696 -0.41399422 -0.48205712 -0.38648215 -0.5424851
0.5678743 0.22346252 0.39318487 -0.31773758 -0.32400516 -0.4890672 -0.31717908 -0.80607873
-0.42932603 0.5850351 -0.7539681 -0.20774755 -0.21274374 -0.60291594 0.2854714 0.2491784
0.4936189 0.01224798 0.64954597 -0.3156155 0.40393758 0.3880348 -0.563639 -0.060658265
-0.5427011 0.62021816 0.42312106 -0.46486038 0.23881178 0.39595234 -0.6669292 -0.21357922
0.5001462 -0.12635513 0.12200279 0.27548468 0.10729863 -0.67522 0.30095804 -0.6072582
0.5670754 0.6181718 0.24200849 -0.061456338 -0.037622318 -0.47553608 -0.42118183 -0.07995773

weight f4 [64, 64]
00000000: 9602 f33e 1a32 093e f792 2c3e b3ed 95be
00000010: 719f 7d3e 5e18 e53d adfa 30be 0557 b0be
00000020: f231 c9be 3a03 99be bd16 96be 6fe3 64be
00000030: be95 933e 9029 c83c 78b9 8b3e c52f 0bbd
00000040: 3266 d6be fc85 e1bd 9779 013d 4838 173d
00000050: 3cbd 053d 3d17 633e d36e 1f3e 2efa 993e
00000060: 6ee1 3b3e af17 90be d0a0 503e 0c6a 943a
00000070: e33c bf3e 7389 973e 55e2 b2be 7914 bcbd
00000080: d183 18bd 54f2 c13d 2353 3ebe c281 993d
00000090: 57fb 16be 4b87 7abe 6437 053e 0435 d93d
000000a0: b020 1d3e 3f8c 0abf 325d 8fbe b2dc 943d
000000b0: 9328 0ebd 6c31 9ebe fc91 f63e 1da7 563e
000000c0: bc9f 8cbe 1590 f33d 4e7c 28be 5cdc dbbe
000000d0: de80 09be 64db 8b3e e7f6 c43d 1e75 103e
000000e0: 5e5f 3bbe 287d 45be 2a53 47be 17e4 fdbb
000000f0: 8884 283d b9ac b43d ad9b 4a3d 01eb c63b
00000100: 9fbb a5be 790a 03be 8760 33be c61e 4b3e
00000110: 02bd 4dbe c7a5 663d 8312 53bd 6ab0 973e
00000120: edd0 c33e 521c fc3d 4777 2b3e 5bd8 223e
00000130: 4ac8 88be 8cdc bebd 80b3 4cbe 8a91 92bc
00000140: 5826 dd3d 5a4d 313e 9f5f 023e 2e2e ebbc
00000150: 1a9e 08bd 53ed a3be ebe0 28be 6b80 9abe
00000160: 611c b6be bdc4 a43e 2c55 c7be 3ea3 29bb
00000170: 2eea 4ebe 67ce aebe 7f73 813e 378e 6d3e
00000180: 5cb5 683e ae57 57bd dcf6 133e b65f 0bbd
00000190: e460 9c3e 5abf 133e 5aef 0abe 461d 30be
000001a0: 6e47 b8bd 5bf2 c43e 76a8 cb3d 7012 56be
000001b0: 3423 043e 9999 543e 5762 edbe 3fd1 59be
000001c0: b94f f13d 2c2e 00be e295 4a3e 2c00 a33e
000001d0: 028c b93d b8a6 59be d85a 133d 16f3 7dbe
000001e0: 7e8b f63e cf4a c93d fc01 dc3d 83df 903d
000001f0: bae7 433e c07a 24be 326a 25bc d4de 3c3e
00000200: ef9e 3f3c c716 383f d750 f7bd a31f eebe
00000210: 8a55 183d e2e3 9cbe fae3 9e3e 6cf5 5ebe
00000220: 0da2 ce3d b8ed 00be 29d2 a53e 1f60 90bd
00000230: 46ed a2bd b664 003f cbb6 fbbb 8aa3 213f
00000240: ed3d 4cbd 24fe 83be ae72 e4be a69f a03e
00000250: 2ac7 d23e dd59 213d 88fa fe3e be0f fa3d
00000260: 3a03 963e 764b 5dbe 8159 5c3d a69d e73e
00000270: 5f5d 18be bd6b b23e 8974 4ebd b30d 013e
00000280: 0a52 e0bd 3b84 cabe 70fa c2bb bc97 cf3e
00000290: 3243 913c 4fa1 dd3d 9310 d73d cf57 f0be
000002a0: bd47 ea3e 305d 64be eb52 7ebe 6574 d73e
000002b0: 4ce9 aabe 57e2 6c3d 443e 413e a155 30bd
000002c0: 4ae6 14bf 985f 86be d36b 243e a9e8 efbd
000002d0: 653c 123d d25b ea3e 2696 15bf ed11 df3e
000002e0: 694e eabe 386c 853d a9d6 15bf a5b6 d93e
000002f0: bfc3 193e 7d67 0f3f 6c2a 093f 567c f53d
00000300: 8c64 76bd 8e90 133f fe12 72be 75c5 afbe
00000310: b4e9 bd3e f4f3 08bf fdcb 433e 80a7 8abe
00000320: c7a1 11bd 82b5 fbbd 028d d73d 4584 af3d
00000330: bb6b 74bd e98c fd3e 84b2 76be be57 833e
00000340: 210a b6bd 2ae1 d5be f048 83be 31b1 103f
00000350: d60a 6e3d ef65 fb3d 98c4 eb3e 771f 0d3e
00000360: 1dfc 643d 56ed 65be b99f b0bd afb1 5d3e
00000370: d70b 6e3d 372e a53e e393 8f3d fa54 813e
00000380: 3dc5 a1be f569 ffbe f841 283b dcd3 723e
00000390: a230 39be bac9 073e 63b8 b93d ab96 a6be
000003a0: c45d 103f ad92 afbe beea c0be 83d6 2b3f
000003b0: 99b1 44bd d1a0 5a3e a52b 233e 171d a1bd
000003c0: 6d34 0dbf 98c6 93be de67 813e a916 c53b
000003d0: e6c3 8d3d 3e5d 563f ec3f c4be 8cee 4e3f
000003e0: cc44 92be b294 d4bd 81f1 34bf 856f a63e
000003f0: 8e04 123d c912 863f 2879 2a3f 8368 413c
0.4746291 0.13398018 0.16852938 -0.29282913 0.24767853 0.11186288 -0.17283125 -0.3444139
-0.39295918 -0.29885274 -0.29314223 -0.22352384 0.28825182 0.024433881 0.2728994 -0.033981103
-0.41874844 -0.110118836 0.031610098 0.03691891 0.03265117 0.22176833 0.1556962 0.30073684
0.18347713 -0.2814307 0.20373845 0.0011323108 0.3735114 0.29597053 -0.34938303 -0.09183592
-0.037235085 0.094700485 -0.18586402 0.074954525 -0.14744316 -0.24465673 0.13009411 0.10605815
0.153445 -0.5412025 -0.2800079 0.07268657 -0.034706663 -0.3089708 0.48158252 0.20962186
-0.27465618 0.11892716 -0.16453668 -0.42941558 -0.13428065 0.2731582 0.096174054 0.14107177
-0.18298098 -0.19286025 -0.19465318 -0.0077481377 0.041142017 0.08822007 0.04946487 0.006070495
-0.32369706 -0.12796964 -0.17517291 0.19835958 -0.20091632 0.05631044 -0.051531326 0.2962678
0.38245335 0.12310089 0.1674472 0.15902846 -0.26715308 -0.0931941 -0.19990349 -0.017891664
0.10798329 0.17314664 0.12731789 -0.028708544 -0.033353902 -0.32017002 -0.1649205 -0.301761
-0.35568526 0.3218135 -0.38932168 -0.0025884653 -0.2020652 -0.34141847 0.2528343 0.23198782
0.22725433 -0.052573852 0.14449638 -0.034026824 0.30542672 0.14428464 -0.13567868 -0.17198667
-0.08997999 0.38466153 0.09944241 -0.20905471 0.12904054 0.20761718 -0.4636409 -0.21271227
0.11782784 -0.12517613 0.19783738 0.3183607 0.090599075 -0.21255004 0.035975307 -0.24799761
0.481533 0.09828722 0.10742566 0.070738815 0.19131365 -0.1606245 -0.01009612 0.18444377
0.011695608 0.71909755 -0.12075966 -0.46508512 0.03719095 -0.3064261 0.31033307 -0.21773309
0.100895025 -0.12590683 0.32386902 -0.07049584 -0.079554126 0.5015367 -0.0076817027 0.63140166
-0.049863745 -0.2577983 -0.44618744 0.31371802 0.41167575 0.03939234 0.49800515 0.12210034
0.29299337 -0.21610817 0.053796295 0.45237464 -0.14879368 0.34847823 -0.050404105 0.12602882
-0.10953148 -0.3955401 -0.0059502646 0.40545452 0.017732237 0.10821783 0.10501208 -0.46941993
0.45757857 -0.22301173 -0.24836318 0.4208099 -0.33381116 0.057833042 0.18871409 -0.043050412
-0.58163893 -0.26244807 0.16056757 -0.11714298 0.035702128 0.45773178 -0.58432233 0.43568364
-0.45762947 0.06514782 -0.5853067 0.4252216 0.15016077 0.56017286 0.53580356 0.11986606
-0.060154483 0.5764245 -0.23640057 -0.34330335 0.37092364 -0.5349724 0.19120784 -0.27080917
-0.035554674 -0.12290479 0.10524942 0.0857015 -0.059673052 0.49521568 -0.24091536 0.2565288
-0.08888651 -0.4177335 -0.25641584 0.5652037 0.058115803 0.12275302 0.46048427 0.13781534
0.055904496 -0.22453818 -0.08624215 0.21649812 0.05811676 0.32261822 0.07010629 0.25260144
-0.31595793 -0.49885526 0.0025674086 0.2371363 -0.18084958 0.13260546 0.09068372 -0.32536826
0.56393075 -0.34291592 -0.37679094 0.67124194 -0.048020933 0.21350409 0.15934618 -0.078668766
-0.5515812 -0.28862453 0.25274557 0.006014664 0.0692213 0.83736026 -0.3833002 0.80832744
-0.28568113 -0.10379924 -0.70681006 0.32506958 0.035648875 1.0474483 0.6659112 0.011804703

bias f4 [64]
00000000: 96af 96be f230 e33d bcc6 6dbe 277f f0bd
00000010: 225f 93be 3c54 06be e5a8 8bbe 9f06 02be
00000020: a1c4 48be f566 9bbe cc10 9e3e cf4a 2cbe
00000030: e553 4d3e f561 cbbd 4f18 6cbd 8912 aabd
00000040: 959e 7bbe 46ba 623e 1b46 2bbe 8ffc 2c3e
00000050: 8c3a 3dbe c7b3 16be ec6a 37be dd55 19be
00000060: 7f0b d8bd b0ac 0e3e e584 443e 5a99 03be
00000070: 5281 1f3e de4e 803e 62b5 8c3e b2ff e73d
00000080: 163f 5f3e a337 a53e 0202 413e bf2b a8be
00000090: 9475 aabe 69f1 4fbe d288 74be 1ec2 9fbe
000000a0: 7b0d 943e cab6 84be 8365 f53d 251d 9a3e
000000b0: d975 a23e 1287 9a3e c9b6 993e 0860 50be
000000c0: 02dd 923e 7f65 8dbe 6b39 e23d acf8 6b3e
000000d0: 8647 9cbe 1a37 7bbe 893c 4abe f0d8 563e
000000e0: 948a 473e ad1a 623e 8882 ed3d 255d 243e
000000f0: 7436 12be 8912 ac3e 012b b03e a0f9 653e
-0.29430836 0.1109332 -0.23220342 -0.117430024 -0.28783518 -0.1311807 -0.27277294 -0.12697838
-0.19606258 -0.30351987 0.3087219 -0.16825412 0.20051534 -0.09930793 -0.05764037 -0.083043166
-0.24572213 0.2214137 -0.16725962 0.16893218 -0.18479365 -0.14717017 -0.17911881 -0.1497416
-0.10549068 0.13933063 0.1919132 -0.12851468 0.15576676 0.2506017 0.27482134 0.11328067
0.21801409 0.3226901 0.18848422 -0.32845876 -0.3329283 -0.20306934 -0.23880318 -0.31202787
0.28916535 -0.25920707 0.119822524 0.3010036 0.31730536 0.30181175 0.30022267 -0.20349133
0.2868424 -0.27616498 0.11046108 0.2304408 -0.30523318 -0.24532738 -0.19749655 0.20981193
0.19486457 0.22080489 0.115971625 0.16051157 -0.14278585 0.3360789 0.3440781 0.22458506

weight f4 [1, 64]
00000000: afad f2bf 472c 0340 935f 10c0 0ff7 0bc0
00000010: 481e 11c0 7f25 07c0 6e8a ecbf 7495 09c0
00000020: e98d 0fc0 5f7c 0cc0 01db 0a40 9edf 0dc0
00000030: 2e48 0640 485a f5bf 9926 1240 f3c5 10c0
00000040: ae76 08c0 4a0e 0840 6e27 17c0 a4fe 0a40
00000050: 3fb9 07c0 7b1f 0bc0 ba81 07c0 5855 0fc0
00000060: f8d6 13c0 6668 0940 35e8 0a40 01d8 07c0
00000070: 8a31 0040 e0e5 1240 a432 0a40 ec09 0840
00000080: 0dce 1440 e7ed 0240 32ad 0040 cf9d 0fc0
00000090: 7667 02c0 0636 05c0 8504 0ec0 9e58 04c0
000000a0: f773 0540 7404 f7bf 2f34 1340 e957 0740
000000b0: 851e f73f 2c7d 0a40 c124 0240 d78a 12c0
000000c0: 4748 0d40 ca72 02c0 0c6b 0a40 f726 0840
000000d0: 216b 0cc0 f1be 0dc0 27e2 fabf 235f f93f
000000e0: 9978 0b40 85ee 0940 bdb8 0440 b3d0 0f40
000000f0: 5da0 08c0 eb8d fc3f 5e13 e93f 7ada 1040
-1.8959254 2.0495775 -2.2558334 -2.1869543 -2.2674732 -2.1116636 -1.8479745 -2.149747
-2.2430365 -2.195091 2.169617 -2.2167735 2.0981555 -1.9168177 2.2836058 -2.2620819
-2.1322436 2.1258721 -2.3617816 2.171792 -2.1206815 -2.1737964 -2.117293 -2.239584
-2.3099957 2.146997 2.1704228 -2.1225588 2.0030236 2.2952805 2.1593409 2.1256056
2.3250763 2.0457704 2.010571 -2.2440069 -2.0375648 -2.0814223 -2.2190259 -2.0679088
2.085203 -1.9298234 2.30006 2.1147406 1.9306189 2.16389 2.0334933 -2.289724
2.2075365 -2.0382562 2.1627836 2.1273782 -2.1940386 -2.2147791 -1.9600266 1.9482158
2.1792357 2.155183 2.0737755 2.247113 -2.1347878 1.973081 1.8209035 2.2633348
