evaluation/cheetah_ppo/cheetah_ppo_s0/pyt_save/model.pt (torch_old, 48909 bytes, 12 tensors)

log_std f4 [6]
0	0xbf1b3bdb	-0.6063821
1	0xbf2c91e7	-0.6741013
2	0xbf21d9dc	-0.6322305
3	0xbf2ad496	-0.6673063
4	0xbf24f110	-0.6443033
5	0xbf205499	-0.62629086

weight f4 [64, 17]
0	0xbc1dc723	-0.009629997
1	0x3e097c84	0.13426405
2	0xbe9a5880	-0.30145645
3	0xbe8951e8	-0.26820302
4	0x3ce702cd	0.028199578
5	0x3d3e7e44	0.046507135
6	0x3dd0e962	0.10200764
7	0x3e9192b9	0.28432253
8	0x3e1d0170	0.1533258
9	0x3e3430f4	0.17596799
10	0xbc565eee	-0.013084156
11	0xbc922379	-0.01783918
12	0xbe6680f1	-0.22510125
13	0xbe1a43c2	-0.1506491
14	0xbe478749	-0.19485201
15	0x3bc4e875	0.0060091564
16	0x3d424a63	0.047434222
17	0x3e2d1a4c	0.16904563
18	0xbe1cdef9	-0.15319432
19	0xbda9cd41	-0.08291102
20	0x3d81e511	0.06342519
21	0x3e0b63e5	0.13612325
22	0xbdb4aa2b	-0.088215195
23	0x3e4b0e71	0.19829728
24	0xbd969749	-0.07353074
25	0x3dd4912e	0.10379253
26	0x3e189805	0.14901741
27	0xbe82fa57	-0.2558162
28	0xbe10a5c2	-0.14125732
29	0xbde81bc3	-0.1133342
30	0xbd837fc4	-0.06420854
31	0x3e9862dd	0.29762927
32	0xbe1c68c7	-0.15274344
33	0xbd303320	-0.043017507
34	0xbe35db5c	-0.1775946
35	0xbe7bd7a8	-0.24593985
36	0xbddc38e4	-0.107530385
37	0x3e4f8c68	0.20268404
38	0x3dd61d3a	0.10454793
39	0x3d94ceb0	0.07265985
40	0xbccbb8b0	-0.02486834
41	0xbe67ed1c	-0.22649044
42	0xbdb38242	-0.08765079
43	0xbe627ea1	-0.22118618
44	0xbdb8744b	-0.09006556
45	0xbe07a4a5	-0.132464
46	0x3e34d641	0.17659856
47	0x3e4d1b61	0.20029975
48	0xbe27ee67	-0.16399537
49	0xbd9d593b	-0.07683035
50	0x3ddd716f	0.10812651
51	0x3e36bc25	0.17845209
52	0x3dc87db8	0.09789604
53	0x3d821152	0.0635096
54	0x3dd16644	0.10224584
55	0xbd9e394e	-0.07725774
56	0x3dbaecf4	0.091272265
57	0xbe0d04eb	-0.13771407
58	0xbdd8094f	-0.105486505
59	0xbdea1791	-0.11430276
60	0x3e3e3300	0.18574142
61	0x3e301c3f	0.17198275
62	0xbe1a5cad	-0.15074416
63	0x3d8b28c5	0.067948855
64	0x3e0a6f90	0.1351912
65	0xbd8fa735	-0.07014314
66	0xbd44484f	-0.04792052
67	0x3cb801b1	0.022461744
68	0x3dfb0fa1	0.1225884
69	0x3e3e337b	0.18574326
70	0xbe3e2739	-0.1856965
71	0xbcba9a3a	-0.02277862
72	0x3d86bbad	0.06578765
73	0x3e994efa	0.29943067
74	0x3e554827	0.20828305
75	0x3e1df4e8	0.15425456
76	0x3dc06122	0.093935266
77	0xbe05a9f1	-0.13053109
78	0xbcf93e6a	-0.03042527
79	0xbe1ac5a2	-0.15114453
80	0xbdfdd4e2	-0.1239412
81	0x3e969829	0.29412964
82	0x3e3f7a5e	0.18699023
83	0xbe6b3547	-0.22969542
84	0x3d9e98aa	0.07743962
85	0xbc7af3bb	-0.015316899
86	0xbdbc4dba	-0.09194513
87	0xbe3ae4f4	-0.18251401
88	0x3daf7d45	0.08568815
89	0xbe07e54e	-0.13271067
90	0x3dc0bb13	0.094106816
91	0x3e59bf91	0.21264483
92	0x3e478653	0.19484834
93	0x3d565014	0.052322462
94	0xbe83edcb	-0.2576736
95	0xbe252fae	-0.1613147
96	0x3e19b9b9	0.15012254
97	0xb9fbac83	-0.00048002982
98	0xbe6dccce	-0.23222658
99	0xbdd24ffb	-0.10269161
100	0x3e67660d	0.22597523
101	0x3e3a7feb	0.1821286
102	0xbd43cbc2	-0.04780174
103	0xbcd76a60	-0.02629584
104	0xbe598952	-0.2124379
105	0xbdba1bf7	-0.09087365
106	0xbe980b0a	-0.29695922
107	0xbe757699	-0.23971023
108	0xbd8b73ae	-0.068091735
109	0x3d9d737d	0.07688043
110	0xbe3c77ed	-0.18405123
111	0x3d8c6e2e	0.068569526
112	0xbdf1446e	-0.1178063
113	0x3e95a193	0.29224834
114	0x3de85f33	0.11346283
115	0xbe3d01af	-0.18457673
116	0x3b8dc286	0.0043261675
117	0x3a3c694c	0.00071873213
118	0xbc716773	-0.014734137
119	0x3e24ed2c	0.16106099
120	0x3d77bab8	0.060480803
121	0x3d914c49	0.07094628
122	0xbdf66d1c	-0.1203253
123	0x3cf94e8c	0.030432962
124	0xbe876f33	-0.26452026
125	0xbdd02df2	-0.101650134
126	0xbd2259a5	-0.039636273
127	0xbe472033	-0.19445877
128	0xbe1da1df	-0.1539378
129	0xbe1631af	-0.1466739
130	0xbddd2783	-0.10798552
131	0x3d76827d	0.060183037
132	0xbe315fe6	-0.17321739
133	0xbc37861e	-0.01120141
134	0x3e4f100d	0.20220967
135	0xbc80606f	-0.015670983
136	0x3d28ec9b	0.04124127
137	0xbdae5579	-0.08512396
138	0x3d6cdd09	0.057827983
139	0x3d93a137	0.07208484
140	0x3e8159a3	0.252637
141	0x3e6e427d	0.23267551
142	0x3e877ee4	0.26463997
143	0x3dd59567	0.10428887
144	0xbdef0b1c	-0.11672041
145	0x3d17c22d	0.037050415
146	0x3e8a4b8d	0.27010766
147	0x3d3090c0	0.043106794
148	0xbdf2d3cc	-0.11856803
149	0xbe4ecc17	-0.20195042
150	0xbe8e0866	-0.27740782
151	0xbe3d72f4	-0.18500882
152	0xbcf374de	-0.029718813
153	0x3da59791	0.080855496
154	0x3dc1e3d4	0.09467283
155	0xbe1fe3d4	-0.15614253
156	0x3e45ef86	0.19329652
157	0xbe46aacd	-0.19401093
158	0x3db2dd4d	0.08733616
159	0xbe128c58	-0.1431135
160	0xbdecba19	-0.11558933
161	0xbd723f36	-0.059142314
162	0xbe2fa462	-0.17152551
163	0xbe2fdd30	-0.1717422
164	0xbc840d5f	-0.016119657
165	0xbd9768df	-0.073930494
166	0xbdf1e62a	-0.118114784
167	0x3dca709c	0.0988476
168	0xbe5ff82e	-0.21872017
169	0xbd25897f	-0.04041433
170	0x3e5c6b97	0.21525417
171	0xbde06644	-0.109570056
172	0x3e2ae097	0.16687237
173	0x3e263dc7	0.16234504
174	0xbe50bced	-0.2038457
175	0x3e8c7fd6	0.2744128
176	0x3c881856	0.016613167
177	0x3c98fea6	0.018676113
178	0x3e8194e5	0.2530891
179	0xbe2dc8a1	-0.16971065
180	0x3dc8c155	0.098025
181	0xbdffd894	-0.12492481
182	0x3e2f7924	0.17136055
183	0x3d28fc3e	0.041256182
184	0x3df43548	0.11924225
185	0x3d84a1e2	0.06476189
186	0xbd060536	-0.032719813
187	0xbd5d9a3d	-0.05410217
188	0xbe719407	-0.23591624
189	0x3d2afbf3	0.041744184
190	0x3e5628f6	0.20914063
191	0x3e3204a2	0.1738458
192	0xbddb0f85	-0.106963195
193	0x3c94c405	0.018159876
194	0xbe513c2e	-0.20433113
195	0xbe3aa554	-0.1822713
196	0xbe18bbb9	-0.1491536
197	0x3ddf8946	0.10914855
198	0xbe201301	-0.1563225
199	0xbd17dca5	-0.037075657
200	0x3d70a69c	0.05875264
201	0x3e186888	0.14883626
202	0xbe683b7a	-0.22678939
203	0xbe3237f3	-0.17404155
204	0xbde87965	-0.11351279
205	0x3e0c2037	0.13684164
206	0xbd621e6c	-0.055204794
207	0x3eaa371b	0.33245167
208	0xbbfb9a35	-0.007678295
209	0xbbfaa296	-0.0076487763
210	0x3bc51c4e	0.006015337
211	0xbe085d88	-0.1331693
212	0xbd05542f	-0.032550987
213	0xbde4681b	-0.11152669
214	0xbd374c9b	-0.04475079
215	0x3de33a60	0.110951185
216	0xbe788e0b	-0.24272935
217	0xbe0aded6	-0.13561568
218	0x3dee0eac	0.11623892
219	0xbe31e9f0	-0.17374396
220	0xbc824dd9	-0.015906261
221	0x3ea2149a	0.31656343
222	0x3d2bd9d3	0.04195578
223	0xbd61b118	-0.05510053
224	0xbeab2c97	-0.33432457
225	0x3e1fd6be	0.15609261
226	0xbe3d64c8	-0.18495476
227	0xbe424aab	-0.18973796
228	0xbdafcfb7	-0.0858454
229	0xbc73b546	-0.014874762
230	0xbde0c930	-0.109758735
231	0x3de65f63	0.11248662
232	0x3da13f6b	0.07873424
233	0x3e690fbb	0.22759907
234	0x3e0ecf68	0.13946307
235	0xbdd1fb0a	-0.1025296
236	0x3db99161	0.09060932
237	0xbe1bd27a	-0.15217009
238	0xbe141577	-0.14461313
239	0x3d2d17b5	0.042258937
240	0x3e15872c	0.14602345
241	0x3e0f230c	0.13978213
242	0xbcf4fa54	-0.029904522
243	0x3c66e6c9	0.014093109
244	0x3dca231f	0.0986998
245	0xbe73be79	-0.23803128
246	0x3d848503	0.064706825
247	0xbe45e46e	-0.1932542
248	0xbca4d169	-0.020119386
249	0xbe1cde01	-0.15319063
250	0xbdb6b315	-0.08920876
251	0x3dbec8a8	0.09315616
252	0x3e2f2209	0.17102827
253	0xbe1c8487	-0.1528493
254	0xbe0cea92	-0.13761356
255	0x3d149ccf	0.036282357

bias f4 [64]
0	0x3d107a87	0.0352731
1	0xbdd106ef	-0.102064006
2	0xbd1ea2a4	-0.038729325
3	0x3e3ca94b	0.18423955
4	0xbdd9405a	-0.10607977
5	0x3d89a81a	0.06721516
6	0xbd7a6fa1	-0.061141614
7	0xbdeabdd0	-0.11461985
8	0x3ce0587e	0.027385946
9	0xbe1834fc	-0.14863962
10	0xbd8bfc55	-0.06835238
11	0xbd960008	-0.07324225
12	0xbc5b9443	-0.013402048
13	0xbdba48d8	-0.09095925
14	0x3e713933	0.23556976
15	0x3e46b190	0.19403672
16	0xbe462733	-0.19350891
17	0x3b133adc	0.0022465503
18	0xbe53b1bd	-0.2067327
19	0xbe375b68	-0.17905962
20	0x3dc04504	0.09388164
21	0x3d0b82e9	0.034060393
22	0xbd58c53f	-0.052922484
23	0xbe928dd7	-0.2862384
24	0xbdc50222	-0.096195474
25	0xbb81ab60	-0.003957197
26	0xbe667e98	-0.22509229
27	0xbe869434	-0.26284945
28	0x3dbc54c0	0.09195852
29	0xbe9e3e52	-0.30906922
30	0xbe0a00bb	-0.13476841
31	0xbe0ade2d	-0.13561316
32	0xbe09d785	-0.1346112
33	0xbe0d30ce	-0.13788149
34	0xbe486b56	-0.19572195
35	0xbd3e83b5	-0.046512324
36	0xbe4dc11c	-0.20093197
37	0xbd53ff8a	-0.051757373
38	0xbe27be93	-0.16381292
39	0xbe2cd5f7	-0.16878496
40	0x3daf6d68	0.085657895
41	0xbde67ae4	-0.11253908
42	0xbe29147e	-0.16511723
43	0x3e11def4	0.14245206
44	0x3dbebf22	0.093137994
45	0x3e62dc3c	0.22154325
46	0xbe0f7a0b	-0.140114
47	0xbdfce78d	-0.12348852
48	0x3c4fb757	0.012677989
49	0xbcd1cd7b	-0.025610676
50	0x3e26390e	0.16232702
51	0xbe64517c	-0.22296709
52	0x3d80eccb	0.06295165
53	0x3df1c6dc	0.118055075
54	0xbdc7113a	-0.097200826
55	0xbe527b25	-0.20554788
56	0x3e38a76c	0.18032616
57	0xbe35dba8	-0.17759573
58	0x3dba9baf	0.091117255
59	0xbe7876e8	-0.24264109
60	0x3e073c34	0.1320656
61	0xbe37f7ac	-0.17965573
62	0x3e4a8fd8	0.19781435
63	0xbe35e632	-0.17763594

weight f4 [64, 64]
0	0xbe08369d	-0.13302083
1	0x3af226dc	0.0018474716
2	0x3d5eec23	0.054424416
3	0xbdd377d4	-0.1032559
4	0xbd742ac1	-0.059611086
5	0x3dafbdc3	0.08581116
6	0xbd033b6d	-0.032039095
7	0x3dc60038	0.096680105
8	0xbde344c2	-0.11097099
9	0xbd6eacb3	-0.058270168
10	0xbd873cb9	-0.06603379
11	0x3db55e4f	0.088558786
12	0x3ca8cd3c	0.020605676
13	0xbd510a6f	-0.05103534
14	0x3d031e70	0.03201145
15	0x3c2fce2c	0.010730308
16	0xbd902a96	-0.070393726
17	0xbd2d34b4	-0.04228659
18	0xbd0b6e0d	-0.0340405
19	0x3dda05c3	0.1064563
20	0xbdc7490c	-0.097307295
21	0xbdb76893	-0.08955493
22	0xbd17936b	-0.037005823
23	0x3ce6162b	0.028086742
24	0x3d5f4c30	0.054516017
25	0x3cd5ce2c	0.026099287
26	0xbdd83d0e	-0.1055852
27	0xbdc0485e	-0.09388803
28	0xbcffd723	-0.031230515
29	0xbd786ce2	-0.060650714
30	0x3e1d9dee	0.15392277
31	0xbe167dab	-0.14696376
32	0xbdf9f1bc	-0.1220431
33	0xbde2e998	-0.11079711
34	0xbd19ae9c	-0.037520036
35	0x3dce005a	0.10058661
36	0x3e1e87d6	0.15481505
37	0xbdd46ff6	-0.10372917
38	0xbcfd8145	-0.03094543
39	0x3de668ee	0.112504825
40	0x3d91f982	0.07127668
41	0x3e1a727a	0.15082732
42	0x3cf064ed	0.029345
43	0xbdbe8718	-0.09303111
44	0x3d974a83	0.07387259
45	0xbd7400b4	-0.059570983
46	0x3d6d5cb8	0.05794975
47	0xbcea72c2	-0.028619174
48	0x3d62525b	0.05525432
49	0x3dd7808d	0.10522566
50	0x3e1fb5ed	0.15596743
51	0xbdc3fe6f	-0.09570014
52	0xbdbeabda	-0.09310122
53	0xbd40f1c8	-0.04710558
54	0xbd9c01e4	-0.07617548
55	0x3e139f04	0.14416128
56	0xbc14da5b	-0.009085263
57	0xbdd1a8ef	-0.102373
58	0xbccc764e	-0.024958756
59	0xbd619d19	-0.05508146
60	0x3cdcb598	0.02694206
61	0xbd9cf085	-0.07663063
62	0xbe2c8a49	-0.16849627
63	0xbe2ab3f2	-0.16670206
64	0x3d6da0a7	0.05801454
65	0x3ddf5df0	0.10906589
66	0xbe0c2f37	-0.13689886
67	0xbcd3afdb	-0.02584069
68	0x3e07357e	0.13204
69	0x3ce500d5	0.027954498
70	0xbd0d6915	-0.034524042
71	0x3d162303	0.036654484
72	0xbd123b7e	-0.035701267
73	0x3d53bbdf	0.05169284
74	0xbd9011ce	-0.07034646
75	0x3dcf5e19	0.101253696
76	0x3d2c3f35	0.042052466
77	0xbd5ab8b3	-0.0533988
78	0x3e0c9bf2	0.13731363
79	0x3dfba42f	0.12287175
80	0xbd7832af	-0.06059521
81	0x3bfb2667	0.00766449
82	0x3dba6fc9	0.091033526
83	0xbce5e3a7	-0.028062655
84	0x3daaa0be	0.083314404
85	0x3d29fe50	0.041502297
86	0x3e0f466e	0.1399171
87	0xbd7499f2	-0.059717126
88	0xbdb2ce8d	-0.08730803
89	0x3d827a8a	0.06371029
90	0x3d30294a	0.043008126
91	0xbdcb8a81	-0.09938527
92	0xbdc4c06c	-0.09607014
93	0xbddf566f	-0.10905158
94	0xbe02e676	-0.12783226
95	0xbd4fd118	-0.050736517
96	0x3dd49eeb	0.10381874
97	0xbd2a4f78	-0.041579694
98	0x3d8c2344	0.06842664
99	0x3e069bcf	0.13145374
100	0x3dd7ff9f	0.10546803
101	0xbdefdec4	-0.11712411
102	0x3c9ec944	0.01938308
103	0x3d8bcb5e	0.068258986
104	0x3d80af64	0.06283453
105	0xbe34d9f2	-0.17661265
106	0x3df23d53	0.11828103
107	0x3dcb777c	0.09934899
108	0xbe0f4208	-0.13990033
109	0xbb8f365f	-0.004370495
110	0x3d247c92	0.040157862
111	0xbddb4dca	-0.107081965
112	0x3d732646	0.059362672
113	0x3df72101	0.12066842
114	0x3d965908	0.073412
115	0x3e04fe6b	0.12987678
116	0x3df32cb3	0.1187376
117	0x3d8d75e0	0.069072485
118	0xbccd2af3	-0.025044894
119	0x3e02b46a	0.12764135
120	0xbdd20844	-0.10255483
121	0xbdab2a71	-0.083577044
122	0x3b6e60f6	0.0036373711
123	0xbdba1b1f	-0.09087204
124	0x3e0236f7	0.1271628
125	0x3dc6f23f	0.097141735
126	0x3ddc638e	0.10761176
127	0x3dcc6b43	0.09981396
128	0xbdf76c83	-0.12081244
129	0xbcfaeb3a	-0.030629743
130	0x3d26b7c1	0.040702585
131	0x3d85471b	0.06507703
132	0x3d2de7f2	0.04245753
133	0xbd777168	-0.060410887
134	0xbdcd188f	-0.1001445
135	0x3de3c264	0.111210614
136	0xbda8c6ae	-0.0824102
137	0xbd82e64e	-0.063915834
138	0x3d8a6308	0.0675717
139	0x3d93b79b	0.07212754
140	0xbcb37caf	-0.02191004
141	0xbd92ece0	-0.071740866
142	0xbdc22683	-0.09480002
143	0xbddba4da	-0.10724802
144	0x3d4a41c1	0.049379114
145	0xbd0aa4e2	-0.03384865
146	0x3dccc91e	0.099992976
147	0xbde74092	-0.11291613
148	0xbc9b8bf8	-0.01898764
149	0x3cfe88d4	0.031071104
150	0x3d4522cf	0.0481289
151	0x3d9f5031	0.07778967
152	0x3d9139cb	0.07091101
153	0x3d0509a2	0.03247989
154	0xbdf4c399	-0.1195137
155	0xbd98b1f7	-0.07455819
156	0xbe1ef92c	-0.15524739
157	0x3b8136a7	0.0039432826
158	0x3e18c495	0.1491874
159	0xbd56fdf0	-0.052488267
160	0x3c111579	0.008855217
161	0xbdb6c8b9	-0.089250036
162	0xbc50ec43	-0.012751642
163	0x3dd01b0e	0.1016141
164	0xbe0ad519	-0.13557853
165	0xbd9968cb	-0.07490691
166	0x3db8e811	0.09028638
167	0x3d3a2f9d	0.045455564
168	0x3b4322d9	0.002977541
169	0x3d6835b5	0.056691844
170	0xbd27bb97	-0.040950384
171	0xbd6a16b3	-0.057150554
172	0xbdf9e156	-0.122011825
173	0x3dacac2c	0.08431277
174	0xbb0ba348	-0.002130704
175	0xbdb2de10	-0.08733761
176	0xbc9bf43c	-0.019037358
177	0xbda21706	-0.079145476
178	0xbcb75c7e	-0.02238297
179	0xbdca1436	-0.09867136
180	0x3da2eb06	0.079549834
181	0x3d7980f0	0.06091398
182	0xbd176664	-0.03696288
183	0xbdb3d289	-0.08780391
184	0x3dc13091	0.094330914
185	0xbd2691ee	-0.040666513
186	0x3d7a7ba2	0.06115306
187	0x3d1d056e	0.038335256
188	0xbdd22b5d	-0.10262177
189	0x3d018f78	0.031630963
190	0x39f1e694	0.00046138896
191	0x3df28298	0.11841315
192	0xbd37a01b	-0.044830423
193	0xbc959871	-0.018261166
194	0x3dbff923	0.09373691
195	0xbdbcdcdb	-0.09221812
196	0x3cca9dac	0.024733387
197	0x3dbcbfe2	0.09216286
198	0xbcea14a6	-0.028574299
199	0x3d8a7093	0.06759753
200	0x3e1c90ce	0.15289614
201	0x3d8a3b03	0.06749537
202	0x3cd3a352	0.025834713
203	0x3e078f17	0.13238178
204	0xbd52deba	-0.05148194
205	0xbc890ad6	-0.0167288
206	0x3d9c3ee0	0.0762918
207	0x3d026b22	0.03184045
208	0x3cc3a550	0.023882538
209	0x3d9b00a6	0.07568483
210	0xbdcaa835	-0.09895364
211	0x3e09b748	0.13448822
212	0xbc4eceb9	-0.012622529
213	0x3d5db3bf	0.054126497
214	0x3de9e3fe	0.11420439
215	0xbd9b9675	-0.07597057
216	0xbdaef609	-0.08543021
217	0x3d9bc956	0.07606761
218	0xbbef65dc	-0.0073058438
219	0x3dc719f3	0.09721746
220	0xbddce43e	-0.10785721
221	0x3d1da9ae	0.038491897
222	0xbd0e79a9	-0.034783993
223	0xbaa4129e	-0.0012517755
224	0xbc8b7e30	-0.017027944
225	0x3d24a0ff	0.0401926
226	0xbc12c6f3	-0.008958566
227	0x3a934dcc	0.0011238395
228	0x3e2d2b76	0.1691111
229	0xbd91de34	-0.0712246
230	0x3cf89753	0.030345595
231	0xbd749253	-0.05970986
232	0x3e069b7e	0.13145253
233	0x3d9787be	0.07398938
234	0x3c2e2b64	0.010630462
235	0xbd54b5fe	-0.051931374
236	0xbdac0a2f	-0.0840038
237	0x3d420c09	0.04737476
238	0x3cae90f9	0.021309363
239	0x3e2c934b	0.16853063
240	0x3da89eb7	0.082333975
241	0x3e0c3829	0.13693298
242	0x3dab37e3	0.08360269
243	0xbdcb4080	-0.09924412
244	0x3d3309d0	0.04371053
245	0xbc35d81c	-0.011098888
246	0x3d04130d	0.03224473
247	0x3ae88668	0.0017740251
248	0x3d59bb49	0.053157125
249	0xbdf968f9	-0.12178225
250	0xbda65f81	-0.08123685
251	0x3ccee37c	0.025254957
252	0x3c80ac66	0.015707206
253	0x3bc0d993	0.005885312
254	0x3d99844f	0.07495939
255	0xbda2c26c	-0.07947239

bias f4 [64]
0	0xbdbca8c2	-0.092118755
1	0x3d6c9c1c	0.057766065
2	0xbdc3e153	-0.095644616
3	0xbcb802e0	-0.022462308
4	0xbd6d418a	-0.05792383
5	0x395b387e	0.00020906513
6	0x3ca2c577	0.01986955
7	0xbd9fc9a4	-0.07802132
8	0xbd93e6b1	-0.07221735
9	0xbd35ddfd	-0.044401158
10	0xbd3c61e2	-0.045991786
11	0x3c67f61c	0.014157798
12	0x3d39f92d	0.04540365
13	0xbd50e3da	-0.050998546
14	0x3dc6a05d	0.096985556
15	0x3dafdc35	0.08586923
16	0xbd0c542f	-0.03425997
17	0x3d430b83	0.0476184
18	0x3d3b6c16	0.045757376
19	0xbdbb5e00	-0.091487885
20	0xbdafc466	-0.08582382
21	0x3dcd41e6	0.10022335
22	0x3d9e6e28	0.077358544
23	0xbe11a286	-0.14222154
24	0xbdac4daf	-0.084132545
25	0x3df06da9	0.11739666
26	0x3d68729b	0.05674992
27	0xbbc848b6	-0.0061121834
28	0x3db4df62	0.088316694
29	0x3d6615fa	0.056173302
30	0x3c7a5c51	0.015280799
31	0x3dfd94d3	0.123819016
32	0xbd3af415	-0.04564293
33	0x3df8a01d	0.12139914
34	0xbd9481cc	-0.07251319
35	0xbd63d4b7	-0.055622783
36	0x3c4aa32f	0.012368008
37	0x3c03900b	0.008029948
38	0x3da0a462	0.078438535
39	0xbbf1ff2f	-0.0073851566
40	0x3da8f2ba	0.082494214
41	0xbd6f474d	-0.058417607
42	0x3d2d0679	0.0422425
43	0xbd15cadc	-0.036570415
44	0x3c037738	0.008024029
45	0x3d32d470	0.043659627
46	0x3e19c8aa	0.15017954
47	0x3dd44ad0	0.10365832
48	0xbe0f0afa	-0.13969031
49	0xbd91d792	-0.07121195
50	0xbda74e9a	-0.08169289
51	0x3c3fa2b7	0.011696509
52	0x3c1025e8	0.0087981
53	0x3ba389d2	0.0049907947
54	0x3d1c88ad	0.03821628
55	0xbc39bbf4	-0.011336315
56	0x3d37544c	0.044758126
57	0x3e019dbf	0.12657832
58	0x3d8d35a4	0.06894997
59	0xbd7b3847	-0.061332967
60	0xbdc8f6d7	-0.09812706
61	0x3d6282d3	0.055300545
62	0xbd2d7bc1	-0.04235435
63	0xbd73fd92	-0.059567995

weight f4 [6, 64]
0	0xbe2e9880	-0.17050362
1	0x3cc4e02d	0.024032677
2	0xbca479d9	-0.020077633
3	0xbd43acbf	-0.047772165
4	0x3d3ecf78	0.046584576
5	0x3dddfd00	0.108392715
6	0x3d5ef437	0.05443212
7	0x3db11901	0.08647347
8	0xbdcf18d1	-0.10112155
9	0x3d4c86ff	0.04993343
10	0x3decb4ba	0.11557908
11	0x3cfbb747	0.030727042
12	0xbd506287	-0.050875213
13	0x3d5dc4fd	0.05414294
14	0xbd8b6f3a	-0.06808324
15	0xbd7d6015	-0.06185921
16	0xbb5fd5be	-0.00341545
17	0xbd08c424	-0.03339018
18	0xbe3e720c	-0.18598193
19	0x3d9b0705	0.07569698
20	0xbdb4a29e	-0.08820079
21	0xbe26f918	-0.16305959
22	0x3c9e07ba	0.019290794
23	0xbddc2186	-0.107485816
24	0x3e16983c	0.1470651
25	0x3e01c579	0.12672986
26	0xbccc53d4	-0.024942316
27	0xbcb0146a	-0.02149411
28	0xbd919193	-0.07107844
29	0x3cc1cac3	0.023656255
30	0x3cae56ac	0.021281563
31	0xbd850a44	-0.06496099
32	0x3d1872a7	0.037218716
33	0xbd1dacd5	-0.038494904
34	0xbd61363d	-0.054983366
35	0xbcec2f87	-0.028831257
36	0xbe0cc563	-0.13747172
37	0xbe074d17	-0.13213001
38	0x3d5253d4	0.051349476
39	0x3daec41c	0.08533499
40	0xbdbb7226	-0.091526315
41	0x3e037c46	0.12840375
42	0x3cf75f25	0.030196736
43	0xbd719b90	-0.058986247
44	0xbd8eb88d	-0.06968794
45	0x3dc632bd	0.09677646
46	0x3c890082	0.016723875
47	0x3deffb87	0.11717897
48	0x3c6c8342	0.014435591
49	0xbd22de78	-0.039762944
50	0x3dcf9667	0.10136109
51	0xbd521bfa	-0.05129621
52	0x3db7b68e	0.089703664
53	0x3db13a80	0.08653736
54	0xbc6a924f	-0.014317109
55	0xbe26eff7	-0.16302477
56	0xbe17b8bc	-0.14816564
57	0x3db074fa	0.086160615
58	0x3dba25a9	0.09089214
59	0x3d05e884	0.032692447
60	0xbdfcf502	-0.12351419
61	0xbc839a1a	-0.016064692
62	0x3da46932	0.08027877
63	0x3d8ff22f	0.07028615
64	0x3e3f0436	0.1865395
65	0x3dfad215	0.12247101
66	0xbcb24b81	-0.021764519
67	0xbd56a71a	-0.052405454
68	0xbde6b7b8	-0.1126551
69	0x3d010074	0.031494573
70	0xbc78fc3c	-0.015196856
71	0x3cb827fa	0.02248
72	0xbbe09b77	-0.0068544704
73	0x3da3e872	0.0800332
74	0x3dbcd404	0.09220126
75	0x3d9d93f4	0.076942354
76	0xbb49790d	-0.0030742318
77	0x3de3f4cd	0.111306764
78	0xbd091bf6	-0.03347393
79	0xbe1818ec	-0.14853257
80	0xbd93af0a	-0.072111204
81	0xbdb05b0c	-0.08611116
82	0x3e148788	0.14504826
83	0xbb8cd10c	-0.0042973813
84	0x3ccbf73c	0.024898164
85	0x3d21c1bd	0.039491404
86	0xbcfdec38	-0.030996427
87	0xbd8bd0a4	-0.068269044
88	0x3b414a67	0.002949381
89	0xbe1b6254	-0.15174228
90	0xbd710c9e	-0.058849923
91	0x3df758da	0.12077494
92	0xbe1ebe13	-0.15502195
93	0x3c73ac34	0.014872599
94	0x3d004b64	0.031321898
95	0xbe15402c	-0.14575261
96	0x3cf5ddcb	0.030012986
97	0x3d4aad5a	0.049481727
98	0x3db3c0df	0.087770216
99	0x3d5881c7	0.05285814
100	0x3df6cba8	0.12050563
101	0x3c0178da	0.007902348
102	0x3be707f3	0.007050508
103	0x3cb624a0	0.022234261
104	0xbe082a5d	-0.1329741
105	0xbd1dd0d5	-0.038529236
106	0xbd95ccc7	-0.07314449
107	0x3da9d440	0.082924366
108	0x3cdd9283	0.027047401
109	0xbdb56007	-0.088562064
110	0xbc8ebe7a	-0.01742481
111	0x3d7b4a2f	0.061350044
112	0xbdf1695a	-0.11787672
113	0xbd0b386e	-0.033989362
114	0x3d547b06	0.051875137
115	0x3cb908c2	0.022587184
116	0xbd3d2614	-0.046178892
117	0x3d9a574c	0.07536182
118	0x3d9ef865	0.07762221
119	0xbdf63843	-0.1202245
120	0x3e1ad7c2	0.15121368
121	0xbe147707	-0.1449853
122	0x3dfe162c	0.12406573
123	0x3e123480	0.1427784
124	0xbbe3ca21	-0.006951586
125	0xbdbaef65	-0.09127692
126	0xbe07e9be	-0.1327276
127	0xbdcd10c9	-0.10012967
128	0xbd5620c9	-0.05227736
129	0xbd85a0d6	-0.06524818
130	0x3e0ebd43	0.13939385
131	0xbd7cfb69	-0.0617632
132	0x3d6260e7	0.055268195
133	0xbe317a25	-0.1733175
134	0x3d52dc7c	0.0514798
135	0x3deb41a0	0.11487126
136	0xbe07243d	-0.13197418
137	0xbd8c974c	-0.06864795
138	0x3d5b70d0	0.053574383
139	0xbe04b4f2	-0.1295965
140	0xbd94d423	-0.07267024
141	0x3d83432a	0.06409295
142	0x3e13efe8	0.14446986
143	0xbdb084e6	-0.08619098
144	0xbcf7cbdf	-0.03024858
145	0xbe0e426d	-0.13892527
146	0xbe002b75	-0.12516578
147	0x3e076495	0.13221963
148	0x3dc0c03a	0.09411664
149	0xbd9c2984	-0.07625106
150	0xbd9a586b	-0.07536396
151	0xbd032ca7	-0.032025006
152	0x3da210de	0.079133734
153	0xbdd48680	-0.10377216
154	0xbd184649	-0.037176404
155	0xbd5d06d5	-0.053961594
156	0xbcf95268	-0.030434802
157	0x3c9e2da0	0.019308865
158	0x3dd75979	0.105151124
159	0x3ccbbffd	0.02487182
160	0xbdeaadc5	-0.11458925
161	0x3e1b5764	0.15170056
162	0x3de7469a	0.11292763
163	0x3d40da83	0.04708339
164	0x3d8425ee	0.06452547
165	0x3d43aebb	0.047774058
166	0x3dbe63e5	0.09296397
167	0xbe277d53	-0.16356401
168	0xbdfb8e34	-0.122829825
169	0xbd0549f6	-0.032541238
170	0xbcebe7a3	-0.028796976
171	0xbddaf7f4	-0.106918246
172	0xbe368fb5	-0.17828257
173	0xbdab4c55	-0.083641686
174	0xbb3516d6	-0.002763202
175	0x3ddc0639	0.107433744
176	0x3ddd4bd8	0.10805482
177	0x3d9c13f1	0.07620991
178	0xbdc39454	-0.09549776
179	0xbd9e26f2	-0.07722272
180	0x3c2ca53c	0.010537442
181	0xbdf1fc89	-0.118157454
182	0x3ba16bb3	0.004926169
183	0x3ab47c81	0.0013770015
184	0x3ddfb5e2	0.10923363
185	0xbd08eb28	-0.033427387
186	0x3e30542c	0.17219609
187	0xbb9c6a41	-0.0047734086
188	0xbdeda355	-0.11603419
189	0x3e208898	0.15677106
190	0x3de7d77a	0.11320396
191	0xbde1a5a7	-0.11017924
192	0xbe0050f2	-0.12530878
193	0x3db62e75	0.0889558
194	0xbe13fb2f	-0.14451288
195	0x3dce8e83	0.10085776
196	0xbd97a796	-0.07405011
197	0x3bdebdfa	0.0067975493
198	0xbdb3d4e2	-0.087808385
199	0x3e10cde5	0.14141043
200	0xbd976599	-0.07392425
201	0xbcb52f74	-0.022117354
202	0x3e04cbdd	0.12968393
203	0xbe04558c	-0.12923259
204	0xbd4161f1	-0.047212545
205	0xbdd67762	-0.10471989
206	0xbe0569ce	-0.13028643
207	0x3ac737cb	0.0015199123
208	0x3d3faa86	0.046793483
209	0x3e125425	0.14289911
210	0xbe28d259	-0.16486491
211	0xbd62b1c9	-0.05534533
212	0x3d28ee2f	0.041242775
213	0x3cf9e469	0.030504422
214	0x3dba1790	0.090865254
215	0xbe1efde9	-0.15526547
216	0xbd9e3102	-0.07724191
217	0x3d2ab4ae	0.041676216
218	0xbe034e8c	-0.12822932
219	0x3dbee17f	0.09320354
220	0xbe003a69	-0.12522282
221	0x3de3c9f9	0.111225076
222	0x3d4cebb2	0.050029464
223	0xbd868193	-0.06567683
224	0x3db515e9	0.0884207
225	0x3ddf483f	0.10902452
226	0x3e0ec15f	0.13940953
227	0x3d6338ea	0.0554742
228	0xbdbb9a2f	-0.091602676
229	0x3d198595	0.03748091
230	0x3e24b9a9	0.16086449
231	0x3d07fed6	0.033202015
232	0x3dd5dc0d	0.10442362
233	0xbddbec17	-0.1073839
234	0x3d9af00f	0.07565319
235	0xbbe52f89	-0.006994192
236	0xbdde9ea5	-0.10870103
237	0xbce2a3d0	-0.027666003
238	0x3e3085e4	0.17238575
239	0xbd9baf43	-0.07601788
240	0xbd00cad2	-0.031443425
241	0x3b156393	0.0022794947
242	0xbdbeeaa7	-0.093221
243	0x3d9cfd65	0.07665519
244	0x3dfafd57	0.12255352
245	0x3cc8375f	0.024440465
246	0x3c0271c1	0.007961691
247	0xbd7421b7	-0.059602465
248	0xbdf2422e	-0.11829029
249	0xbd78e5b2	-0.06076593
250	0xbbf9921b	-0.007616294
251	0xbddffcc8	-0.10936886
252	0x3dddefc3	0.108367465
253	0x3d917c8e	0.07103835
254	0xbcff1bb5	-0.031141141
255	0xbd5379e5	-0.05162992

bias f4 [6]
0	0x3d569a8e	0.05239349
1	0x3d702c82	0.058636196
2	0x3cd7a9c6	0.026326071
3	0x3dc83911	0.097765096
4	0xbcba5d73	-0.022749638
5	0xbdc8eba4	-0.0981057

weight f4 [64, 17]
0	0xbf32da83	-0.6986467
1	0x3ec3d512	0.38248497
2	0xbe844295	-0.25832048
3	0x3bb9d4e1	0.005671129
4	0x3c9c77ca	0.019100089
5	0xbf051144	-0.5197947
6	0xbea662c5	-0.3249723
7	0xbeb84687	-0.35991308
8	0xbd979879	-0.07402129
9	0x3d85f657	0.06541126
10	0xbd1503ee	-0.0363807
11	0xbca12cca	-0.019674677
12	0xbc1d65be	-0.009606777
13	0x3cae7241	0.021294715
14	0xbd6d2a97	-0.057901945
15	0xbdd15fce	-0.102233514
16	0x3d1ec2ad	0.038759876
17	0xbee89a41	-0.45430186
18	0x3eb3cf3e	0.3511905
19	0xbeeb7b28	-0.45992398
20	0x3dd17fcc	0.102294534
21	0x3ea0dac3	0.31416902
22	0xbeec4ceb	-0.46152434
23	0x3dd0d77b	0.1019735
24	0x3e80d70b	0.25164065
25	0xbe861fa0	-0.26196003
26	0x3eb76074	0.35815775
27	0x3e21328b	0.15741937
28	0x3d45800e	0.048217826
29	0xbdc1e451	-0.09467376
30	0x3ded6c47	0.11592918
31	0xbd5c22ac	-0.053744003
32	0x3dc71f3d	0.09722755
33	0xbd1e3ade	-0.03863036
34	0xbe702c53	-0.23454408
35	0x3e9bd765	0.3043777
36	0x3e2c83a8	0.16847098
37	0xbe39d586	-0.18147859
38	0x3ee29ac4	0.44258702
39	0x3f0420eb	0.5161273
40	0x3e4b0a78	0.19828212
41	0x3d935025	0.07193021
42	0x3c9a04ee	0.018801179
43	0x3e228a7d	0.15873142
44	0xbe124731	-0.1428497
45	0x3dc1d428	0.09464294
46	0xbc3a64ee	-0.011376603
47	0x3dc299ff	0.09502029
48	0x3d687063	0.056747805
49	0x3e0cecd2	0.13762215
50	0x3d8f219c	0.06988832
51	0xbd99d070	-0.075104594
52	0x3ecd9580	0.40153122
53	0xbf083b14	-0.53215146
54	0x3e2067ad	0.15664549
55	0xbe4a47d4	-0.19753963
56	0x3e71f7bf	0.23629664
57	0x3d4d66b4	0.050146773
58	0xbdb8f1dd	-0.09030507
59	0x3ddd26b5	0.107983984
60	0xbc689ae1	-0.014197082
61	0x3d83b78f	0.064314954
62	0x3d807ee6	0.06274204
63	0xbe0ef04c	-0.13958853
64	0x3d01f7de	0.031730525
65	0x3d0ae70a	0.033911742
66	0xbe576adb	-0.21036856
67	0xbd5bfb10	-0.05370623
68	0xbe9c4e02	-0.30528265
69	0x3ed36a02	0.41291815
70	0x3dd2144c	0.102577776
71	0x3e28a905	0.16470726
72	0xbe495f5d	-0.19665284
73	0xbe293c0b	-0.16526811
74	0xbea02c4c	-0.31283796
75	0xbe9e4a65	-0.30916134
76	0x3e2b23da	0.16712895
77	0x3d6a6df2	0.05723376
78	0xbe5f2eda	-0.21795216
79	0xbd00d0b7	-0.031449046
80	0x3e2a8993	0.16654043
81	0x3e089111	0.13336588
82	0x3dabc3dd	0.08386967
83	0xbee23bec	-0.44186342
84	0xbe539baa	-0.2066485
85	0xbdc34108	-0.09533888
86	0xbdcb3829	-0.09922821
87	0xbf12b8c7	-0.573132
88	0x3e96a293	0.2942091
89	0xbee0b43e	-0.43887514
90	0xbe88df01	-0.26732638
91	0xbe79debc	-0.24401373
92	0xbe9396d8	-0.28826022
93	0x3ece4400	0.40286255
94	0xbee22874	-0.44171488
95	0x3b408971	0.0029378796
96	0xbe148ab4	-0.14506036
97	0x3df5f6c0	0.120099545
98	0xbe230a1d	-0.15921827
99	0x3f223555	0.6336263
100	0xbe29c0ad	-0.16577406
101	0xbdc9237e	-0.09821223
102	0xbf03a460	-0.5142269
103	0x3ec18732	0.37798458
104	0xbe80daca	-0.25166923
105	0xbedfb194	-0.4369017
106	0xbdc12790	-0.09431374
107	0x3e2aaedc	0.16668266
108	0xbec6c2a3	-0.3882037
109	0x3e8cc24d	0.2749199
110	0x3dfeb39c	0.124366015
111	0xbecca27f	-0.39967725
112	0x3d38197f	0.04494619
113	0x3d22f02e	0.039779834
114	0x3cac4056	0.021026772
115	0x3e4c7a0f	0.19968437
116	0x3ecc1ae9	0.3986428
117	0xbdf65847	-0.12028556
118	0xbd761eb9	-0.060087893
119	0x3f421a3e	0.7582129
120	0xbec4abfa	-0.38412458
121	0xbf19cea8	-0.6008096
122	0xbf2409da	-0.6407753
123	0x3d4e3379	0.050342057
124	0x3ec3acd8	0.38217807
125	0xbbb35796	-0.0054730875
126	0xbe54f425	-0.20796259
127	0x3e2e40d3	0.17016916
128	0x3e291e5f	0.16515492
129	0x3d2fbb22	0.042903073
130	0x3b5e878e	0.0033955309
131	0x3c661a76	0.014044395
132	0x3cf08dd6	0.029364508
133	0x3cf8739e	0.030328568
134	0xbb1bac43	-0.00237538
135	0xbd91cedc	-0.071195334
136	0x3d50fc88	0.051022083
137	0x3ea66da6	0.3250553
138	0x3e227a11	0.15866877
139	0x3e9b713f	0.30359837
140	0xbdecc8f7	-0.115617685
141	0x3e392bf4	0.18083173
142	0x3e2ca319	0.16859092
143	0x3e14bf20	0.14526033
144	0xbecd3a79	-0.40083674
145	0x3de336db	0.11094447
146	0xbe9ecc25	-0.31015125
147	0xbded87b0	-0.11598146
148	0x3d56de69	0.0524582
149	0xbe926d9d	-0.28599253
150	0xbe3ce3cf	-0.18446277
151	0x3e54ca40	0.20780277
152	0xbd099b1d	-0.033595193
153	0x3ee324ba	0.44363958
154	0xbe8cbfdb	-0.27490124
155	0xbdca8060	-0.09887767
156	0xbf07a813	-0.52990836
157	0xbeafb613	-0.343186
158	0xbd5f37f3	-0.054496717
159	0x3e4892d9	0.19587268
160	0xbcc61abe	-0.024182674
161	0x3f1649f8	0.5870662
162	0x3f29b736	0.6629518
163	0x3f5c6807	0.86096233
164	0xbd791aed	-0.060816694
165	0xbe1294cb	-0.14314573
166	0xbe72fe67	-0.2372986
167	0x3c6b0aaf	0.014345809
168	0x3d61ad95	0.05509718
169	0x3cfa057c	0.030520193
170	0xbe8fdd1d	-0.28098384
171	0x3e90e88c	0.2830242
172	0xbf0e9e54	-0.5571034
173	0xbe0465c2	-0.12929443
174	0xbdb300dc	-0.08740398
175	0x3d2d9f6e	0.042388372
176	0x3e179bb1	0.14805485
177	0x3ee2ca5e	0.4429502
178	0xbe977e51	-0.2958856
179	0x3eb397ec	0.35076845
180	0x3e14e2e8	0.14539683
181	0xbdd0abc1	-0.101890095
182	0x3b5e5fa9	0.003393153
183	0x3e031668	0.12801516
184	0x3def15a1	0.11674047
185	0xbdd2a87a	-0.102860406
186	0xbd8f0388	-0.069830954
187	0xbd729683	-0.05922557
188	0x3defdd46	0.117121264
189	0x3de4f9ab	0.11180433
190	0xbd9dee40	-0.07711458
191	0xbe7fb825	-0.2497259
192	0x3e3df142	0.18549064
193	0x3d4949b6	0.04914256
194	0xbe0bc895	-0.13650735
195	0x3ec382bb	0.38185677
196	0xbf457d22	-0.7714406
197	0xbd3faeda	-0.04679761
198	0xbe4596cb	-0.19295804
199	0x3ec8d0dc	0.39221847
200	0xbe3f0934	-0.18655854
201	0x3bb61485	0.0055566453
202	0x3e30ff81	0.17284967
203	0xbe6859e7	-0.22690545
204	0xbe821dd4	-0.25413382
205	0x3ed28246	0.41115016
206	0x3f3f2648	0.7466779
207	0xbe422c64	-0.18962246
208	0xbdf24189	-0.11828906
209	0x3f5ab79f	0.85436434
210	0x3f83de79	1.0302268
211	0x3eb3624e	0.35035938
212	0x3ea21db1	0.31663278
213	0x3df6a5d2	0.120433465
214	0xbe1ca2c9	-0.15296473
215	0xbb40b2cc	-0.0029403446
216	0x3bca85c5	0.0061804974
217	0xbce2440e	-0.027620342
218	0x3d72a33e	0.05923771
219	0xbcdf8894	-0.027286805
220	0x3d0b133f	0.0339539
221	0x3e8553fe	0.26040643
222	0xbea120f9	-0.3147047
223	0xbc372246	-0.011177605
224	0xbe9b540c	-0.3033756
225	0x3ea2ef42	0.31823164
226	0x3f385b3c	0.7201421
227	0x3e84a5e6	0.2590782
228	0xbcddebd3	-0.027089989
229	0xbec1145a	-0.3771084
230	0x3d38e2c8	0.04513815
231	0x3dd9d22c	0.1063579
232	0xbdd8748d	-0.10569105
233	0xbdbc1c04	-0.09185031
234	0xbd053a3b	-0.032526236
235	0x3e5525f4	0.20815259
236	0x3e8e43d3	0.2778612
237	0xbc8cce9c	-0.017188363
238	0x3eac41a1	0.3364382
239	0x3df0349d	0.11728785
240	0xbe7520c6	-0.23938283
241	0xbe250831	-0.16116406
242	0xbe8625d9	-0.2620075
243	0xbdb2d117	-0.08731287
244	0xbeb1a75c	-0.34697998
245	0xbc9c7533	-0.019098854
246	0x3f00eaaf	0.503581
247	0xbf34fabe	-0.706951
248	0xbe922478	-0.28543448
249	0xbd622a90	-0.055216372
250	0x3e523493	0.20527868
251	0xbec012ae	-0.3751425
252	0xbdbc2b8d	-0.09187994
253	0xbe8125d8	-0.25224185
254	0x3dea6d44	0.11446622
255	0xbe0aab80	-0.13541985

bias f4 [64]
0	0xbf29babb	-0.66300553
1	0xbe875d03	-0.2643815
2	0x3e1febcb	0.15617292
3	0x3e9bab72	0.3040424
4	0x3dc6389d	0.09678767
5	0x3cb5a095	0.022171298
6	0xbdf3b9af	-0.11900651
7	0x3ec2d13e	0.38050264
8	0x3e2004d0	0.15626836
9	0xbeb5e1ac	-0.35523736
10	0x3e41f252	0.18940094
11	0x3e431519	0.19051017
12	0x3f5ee5ed	0.8706959
13	0x3f43d182	0.7649156
14	0x3d202a63	0.039102923
15	0x3e1c0550	0.15236402
16	0x3b9ee18e	0.0048486656
17	0xbd1b741d	-0.03795253
18	0xbed1d3bc	-0.40981853
19	0xbef5204f	-0.47876212
20	0x3e870eba	0.26378423
21	0x3ea49921	0.32148078
22	0xbd2edc08	-0.042690307
23	0xbe654ef9	-0.22393407
24	0x3d13ba11	0.03606612
25	0x3ddfa5e1	0.10920311
26	0xbf5acfc6	-0.8547329
27	0x3e32ab7a	0.17448226
28	0xbdf9cd7b	-0.121973954
29	0x3eadf90c	0.3397907
30	0xbd6b3674	-0.057424977
31	0x3f022cca	0.5084959
32	0x3e52ca4d	0.20584984
33	0x3f329543	0.69759005
34	0xbeadcf27	-0.33947107
35	0x3d9819b2	0.07426776
36	0x3f3f3df2	0.74703896
37	0xbec86cd1	-0.3914552
38	0x3e74e6b6	0.23916134
39	0xbf490244	-0.7851908
40	0xbda62fca	-0.08114584
41	0xbdadc7a6	-0.084853455
42	0xbde4c974	-0.11171237
43	0x3d37c3af	0.044864353
44	0x3f13ad3f	0.5768623
45	0x3ea10186	0.31446475
46	0x3d14fd73	0.03637452
47	0xbf8bd7a5	-1.0925184
48	0x3f9cc822	1.2248576
49	0x3ea7d6d2	0.32781082
50	0x3c97b415	0.018518487
51	0xbef55473	-0.47915992
52	0xbd98423f	-0.074345104
53	0x3cddf55e	0.02709454
54	0xbde382b1	-0.11108912
55	0xbe570e05	-0.21001442
56	0xbfaba858	-1.341075
57	0x3ebe57df	0.37176415
58	0x3eb9ecc4	0.3631345
59	0x3e750273	0.23926716
60	0xbe52c9b4	-0.20584756
61	0xbd9782ad	-0.07397971
62	0xbd04bd20	-0.032406926
63	0xbd81e456	-0.0634238

weight f4 [64, 64]
0	0x3ce23d21	0.02761704
1	0xbe0a7ff4	-0.13525373
2	0xbdb2ab31	-0.087240584
3	0xbe307ff5	-0.17236312
4	0xbe1311cc	-0.14362258
5	0x3e9d7d4c	0.30759656
6	0xbd78e688	-0.060766727
7	0x3dd6082e	0.10450779
8	0xbf0d6bcf	-0.5524263
9	0x3f00a098	0.50245047
10	0xbed18e44	-0.40928853
11	0xbd271fba	-0.04080174
12	0xbec4271e	-0.38311094
13	0x3eab01ac	0.33399713
14	0xbddd1e41	-0.10796786
15	0x3d9007a9	0.07032711
16	0x3d222b4c	0.039592072
17	0xbdd647c4	-0.10462907
18	0xbcdcc2c7	-0.026948346
19	0xbe7bbf2e	-0.24584648
20	0xbc02d15d	-0.007984486
21	0x3e476b67	0.19474564
22	0xbe96f71f	-0.29485413
23	0x3e7a3f37	0.24438177
24	0x3ebc4f6e	0.3677935
25	0xbe9839f6	-0.2973172
26	0x3e2f0460	0.17091513
27	0x3e9f3a47	0.3109915
28	0x3f01247a	0.50446284
29	0x3e1dcf7e	0.15411183
30	0x3e8b0757	0.27154037
31	0xbe54b7c8	-0.20773232
32	0xbe944186	-0.2895624
33	0x3e51a3a4	0.2047258
34	0x3ebe8562	0.37211138
35	0xbe80b555	-0.25138345
36	0x3e13a03b	0.14416592
37	0x3ee17351	0.44033292
38	0xbdbeeaeb	-0.09322151
39	0xbe81f895	-0.25384966
40	0xbd9b72ef	-0.07590281
41	0xbef5fd23	-0.4804469
42	0x3ee69eec	0.45043123
43	0x3d977f51	0.073973306
44	0x3e9b1c52	0.30295044
45	0x3e92ebd6	0.28695554
46	0x3e86dda7	0.26340982
47	0x3e309486	0.17244157
48	0x3ec42570	0.38309813
49	0xbebb7c10	-0.3661809
50	0x3def5273	0.11685648
51	0x3ea97bad	0.3310217
52	0x3e56653b	0.20937054
53	0x3ecdfe55	0.40233102
54	0x3e9478ee	0.28998512
55	0x3e27c6eb	0.16384475
56	0xbdca918b	-0.09891041
57	0x3e707f5d	0.23486085
58	0x3eeb84fa	0.4599989
59	0xbee972b4	-0.45595324
60	0x3f33ca12	0.7023021
61	0x3eb47267	0.35243532
62	0xbd4d70aa	-0.050156273
63	0xbe2aac10	-0.16667199
64	0x3e916cbe	0.28403276
65	0xbbdce87f	-0.006741583
66	0xbe8f3439	-0.2796953
67	0xbe833ecf	-0.25633857
68	0xbe9f0c55	-0.31064096
69	0x3e683d95	0.22679742
70	0xbe3cb723	-0.18429236
71	0xbe0065f3	-0.1253889
72	0xbea70274	-0.3261906
73	0x3ee5a2b2	0.4485069
74	0xbe95a783	-0.29229364
75	0x3e4da246	0.20081434
76	0xbf888a00	-1.0667114
77	0xbdd46985	-0.10371689
78	0x3d084ef8	0.033278435
79	0xbdde820b	-0.108646475
80	0x3c8cb10b	0.017174264
81	0xbe1a167a	-0.15047637
82	0x3dd7b6cf	0.10532915
83	0xbd6e6168	-0.058198363
84	0x3c79610e	0.015220894
85	0x3d5d4f94	0.05403097
86	0xbe2c50b6	-0.16827664
87	0x3ef85e0d	0.48509255
88	0x3df214b2	0.118203536
89	0xbebd4665	-0.3696777
90	0x3e5d66f2	0.21621302
91	0x3df5ab5a	0.11995573
92	0x3e6c80f8	0.23096073
93	0x3e0305e4	0.12795216
94	0x3e671e35	0.22570117
95	0xbd10f139	-0.035386298
96	0xbe9c6578	-0.30546165
97	0x3b5a7b58	0.0033337679
98	0x3e28e926	0.16495189
99	0xbe4c2cd0	-0.1993897
100	0x3db406d9	0.087903686
101	0x3eb8247d	0.35965338
102	0xbef17996	-0.47163075
103	0x3eb0b034	0.34509432
104	0xbcb8c2fc	-0.022553913
105	0xbf0c554f	-0.5481767
106	0x3e380c51	0.17973448
107	0x3e73d53a	0.23811808
108	0x3e042d41	0.12907888
109	0x3c710550	0.014710739
110	0x3e7c555f	0.24641941
111	0x3eb709f3	0.35749778
112	0xbd58a7a8	-0.052894264
113	0xbea9bb65	-0.33150783
114	0xbd6ad830	-0.05733508
115	0x3f20f300	0.6287079
116	0x3edeef56	0.43541974
117	0xbd0acdb4	-0.03388758
118	0x3e2d45ed	0.16921206
119	0x3c18da0d	0.009329331
120	0x3ce3f311	0.027825864
121	0xbd2d0395	-0.042239744
122	0x3e097d59	0.13426723
123	0xbf40277b	-0.7506024
124	0x3f00082a	0.5001246
125	0xbc5ddfed	-0.013542158
126	0x3e0abccb	0.13548581
127	0x3d9e3e4c	0.07726726
128	0x3f0a9bd7	0.5414404
129	0x3e01b82b	0.12667911
130	0x3c046b72	0.008082258
131	0xbdb3d828	-0.08781463
132	0x3e24a48d	0.16078396
133	0x3e3efcc1	0.18651105
134	0x3e3c7457	0.18403755
135	0xbeeb4c0a	-0.4595645
136	0xbdc262d0	-0.09491503
137	0x3e3d3bdd	0.18479867
138	0xbca25844	-0.019817479
139	0xbd96b25a	-0.073582366
140	0xbebc6ed9	-0.3680332
141	0xbee632cc	-0.4496063
142	0xbdaa74be	-0.08323048
143	0xbe316556	-0.17323813
144	0x3dceb3fa	0.100929216
145	0x3b192b0c	0.0023371605
146	0x3e49d9b2	0.1971195
147	0x3e3896be	0.18026254
148	0xbf256474	-0.64606404
149	0xbf2199a5	-0.6312507
150	0x3e36ef31	0.17864682
151	0x3d48a028	0.048980862
152	0xbd66e70d	-0.05637269
153	0x3d5df475	0.05418821
154	0x3f383734	0.71959233
155	0xbe914cd1	-0.2837892
156	0x3e0280a6	0.12744388
157	0xbe18004e	-0.14843866
158	0xbd1189bf	-0.035531756
159	0xbf3b714a	-0.7321974
160	0xbdf29d94	-0.11846462
161	0xbf2d0618	-0.67587423
162	0x3d72fd66	0.05932369
163	0x3df0febb	0.11767336
164	0xbf16d8de	-0.58924663
165	0x3e1c741e	0.1527867
166	0x3dd4e7a1	0.10395742
167	0x3f61a10e	0.88136375
168	0x3e7f30e8	0.24921
169	0x3de09279	0.109654374
170	0x3e64be5d	0.22338243
171	0xbe429536	-0.19002232
172	0xbf02ba29	-0.5106531
173	0xbe628926	-0.2212263
174	0xbe16d9f6	-0.14731583
175	0x3f4d8e84	0.80295587
176	0xbf37fbc2	-0.71868527
177	0xbd44b85a	-0.048027374
178	0xbdf12ae2	-0.11775757
179	0x3e7dd423	0.24787955
180	0xbd466cdb	-0.048443656
181	0xbdd7d42d	-0.10538516
182	0x3d567875	0.05236097
183	0x3e616d86	0.22014436
184	0x3f248b3c	0.64274955
185	0xbf12c532	-0.57332146
186	0xbe873c47	-0.26413175
187	0xbcd9cc0b	-0.026586553
188	0x3e1dfefd	0.15429302
189	0x3db8b8c7	0.090196185
190	0x3e05b648	0.13057816
191	0xbe00dfe5	-0.12585409
192	0x3f095021	0.5363789
193	0x3f074505	0.5283969
194	0xbd1d7e6a	-0.038450636
195	0xbd95665a	-0.07294913
196	0xbe1aec15	-0.1512912
197	0x3cadfa8f	0.02123764
198	0x3e95a1ab	0.29224905
199	0xbf3ea966	-0.7447723
200	0x3da1af67	0.078947835
201	0xbee9810b	-0.45606264
202	0xbddfee8a	-0.109341696
203	0x3d1419c0	0.03615737
204	0x3da4bd30	0.08043897
205	0xbea2d60f	-0.3180394
206	0x3ea972f6	0.3309552
207	0x3e2557c5	0.16146763
208	0xbee8801e	-0.45410246
209	0xbd718b16	-0.058970533
210	0x3d6fc8df	0.058541175
211	0x3e56a764	0.20962292
212	0x3ea20938	0.31647658
213	0xbe846690	-0.258595
214	0x3eac3421	0.3363352
215	0x3e9adad9	0.30245093
216	0xbf6dbc71	-0.92865664
217	0x3e37a9b1	0.17935826
218	0x3ef4c78a	0.47808486
219	0xbf1438a4	-0.57898927
220	0x3dd3f01c	0.103485316
221	0x3de6d1cb	0.112704836
222	0xbe75a073	-0.23986988
223	0x3de3e7c6	0.11128192
224	0x3ddf2da2	0.10897376
225	0xbe056449	-0.13026537
226	0x3e15f49e	0.14644095
227	0xbd79171f	-0.060813066
228	0xbef60829	-0.480531
229	0xbe027c36	-0.12742695
230	0xbdb73434	-0.08945504
231	0x3eaf7eaa	0.34276325
232	0xbe4a345b	-0.19746535
233	0x3dad0306	0.08447842
234	0xbf041527	-0.51594776
235	0x3e1a68f5	0.150791
236	0xbe0e7e01	-0.13915254
237	0xbdbdba45	-0.09264044
238	0xbeaa8a0a	-0.3330844
239	0xbda60250	-0.0810591
240	0xbeeddb3f	-0.46456334
241	0xbdad94f7	-0.084756784
242	0xbeb13ab5	-0.34615102
243	0xbe33c9b9	-0.1755742
244	0xbe213746	-0.15743741
245	0x3e6b94ff	0.23006056
246	0xbdc172d1	-0.094457276
247	0xbee98d3f	-0.45615575
248	0x3dab1bdc	0.08354923
249	0xbf07d405	-0.5305789
250	0xbdf4e97a	-0.119585946
251	0x3d7c89d2	0.061654873
252	0xbdf747b0	-0.1207422
253	0x3eb6b8a1	0.35687736
254	0xbe9dd875	-0.30829206
255	0x3e8b69c9	0.27229145

bias f4 [64]
0	0xbe9403fe	-0.28909296
1	0xbe16fbb6	-0.14744458
2	0xbebdb2e5	-0.37050548
3	0x3e3ea046	0.18615827
4	0xbd5848a2	-0.052803643
5	0x3e0e21de	0.13880107
6	0x3e3323dc	0.17494148
7	0x3cdd0af0	0.026982754
8	0x3d5f7c72	0.05456204
9	0xbeb64584	-0.3559991
10	0xbe3c436b	-0.18385093
11	0x3e829e95	0.25511613
12	0xbe87bb96	-0.26510304
13	0x3e731c29	0.23741211
14	0x3ec4f115	0.3846518
15	0x3e4265cc	0.18984145
16	0x3dd63663	0.10459592
17	0x3dd1796e	0.10228239
18	0x3e9c7287	0.30556127
19	0x3e039f45	0.12853725
20	0x3e3db00f	0.18524192
21	0x3df43277	0.11923688
22	0xbe5166f9	-0.20449437
23	0xbdde91be	-0.10867642
24	0xbed5421f	-0.4165201
25	0x3e27a076	0.16369805
26	0xbeaca1d7	-0.33717224
27	0xbe78e356	-0.24305472
28	0x3ef3b39c	0.4759797
29	0xbe0ac942	-0.13553336
30	0x3ea0da50	0.3141656
31	0xbeaca1d0	-0.33717203
32	0xbed6535a	-0.41860467
33	0x3e83e6d1	0.25762036
34	0x3b1794b6	0.002312941
35	0x3d9bc019	0.07604999
36	0xbe97a1af	-0.29615542
37	0x3e133944	0.14377314
38	0x3ddae55b	0.10688277
39	0xbe8c3408	-0.27383447
40	0xbe1d76f9	-0.15377416
41	0x3e8e03ef	0.27737376
42	0xbe396eb2	-0.18108633
43	0xbe06b8fd	-0.13156505
44	0xbe8835af	-0.26603457
45	0x3e8d239f	0.2756624
46	0xbe91b6ac	-0.2845968
47	0xbd67cd71	-0.05659241
48	0xbea2e6af	-0.31816623
49	0xbd2a06e4	-0.041510478
50	0xbdde4c73	-0.10854425
51	0x3d38e7eb	0.04514305
52	0x3e82bc3d	0.2553424
53	0xbe51f5fe	-0.20503995
54	0x3e0f1ef6	0.13976654
55	0xbd96ca51	-0.073628075
56	0x3eb5b568	0.35489964
57	0x3e6b28f2	0.22964838
58	0xbeae7061	-0.34070113
59	0xbe5eb606	-0.21749124
60	0x3e87844f	0.2646813
61	0x3e4ee945	0.20206173
62	0x3d2ce270	0.042208135
63	0xbe11faec	-0.14255875

weight f4 [1, 64]
0	0x3ff2ed54	1.8978677
1	0x3ff51062	1.9145625
2	0xbff808a9	-1.9377643
3	0xbfec3a99	-1.8455383
4	0xbff3fea6	-1.9062088
5	0x3ffe696b	1.9875921
6	0xbff73f88	-1.9316263
7	0x3ff5f1e0	1.9214439
8	0x3ff4d804	1.9128423
9	0x3ff84ed8	1.9399061
10	0xbfeda21e	-1.8565099
11	0xbff2210a	-1.8916333
12	0x3ffd0421	1.9766885
13	0xbff7c301	-1.9356385
14	0xbfea88f3	-1.8323044
15	0xbff756b5	-1.9323336
16	0x3ff94c8c	1.9476485
17	0x3ffdcb17	1.9827603
18	0xbff33404	-1.9000249
19	0xbfef74dd	-1.8707539
20	0x3ff25b6e	1.8934152
21	0xbffaddde	-1.9598958
22	0x3ffb68cc	1.9641356
23	0x3ff345a8	1.9005632
24	0xbff4f1fd	-1.9136349
25	0x4000c703	2.0121467
26	0x3ff5a924	1.9192243
27	0x3fef6405	1.8702399
28	0x3ffa91a4	1.9575696
29	0xbff182cd	-1.8868042
30	0xbff87e75	-1.9413592
31	0x3ff04c7e	1.8773344
32	0x3fec8429	1.8477832
33	0x3ff8c04b	1.9433683
34	0xbff97bde	-1.9490926
35	0xbfedd4e5	-1.8580595
36	0x3ff9ffd9	1.9531204
37	0x3ff006aa	1.8752034
38	0xbff6cbcd	-1.9280945
39	0x3ff10dc9	1.8832332
40	0x3ff9380f	1.9470233
41	0xbfee3d09	-1.8612376
42	0xbff46268	-1.9092531
43	0x3ff4a83e	1.9113843
44	0x3ff58e2e	1.9184015
45	0x3ff51881	1.9148103
46	0x3fede8b1	1.8586637
47	0x3ffaf1f3	1.9605087
48	0x3ffbcb8b	1.9671491
49	0xbffe88b7	-1.9885472
50	0x3ff4f494	1.9137139
51	0x3ff84527	1.9396104
52	0x3ffb5b82	1.9637301
53	0x3ff007c9	1.8752376
54	0x3ff75b85	1.9324805
55	0x3ffa51fb	1.9556268
56	0x3ff6c7eb	1.927976
57	0x3ffa8d19	1.957431
58	0x3fed1c6e	1.8524301
59	0x3ff42806	1.9074714
60	0x3fffa5f4	1.997252
61	0xbfec6e6c	-1.8471198
62	0x3ffcc7ae	1.9748437
63	0x3ff32c6a	1.8997929
